models/qm_final.pth (torch, 79300 bytes, 10 tensors)

embed.0.weight f4 [128, 11]
-0.08310621 0.068986215 -0.1907784 -0.25351036 0.0951787 0.26866743 0.060325217 -0.12601328
0.25678232 -0.18444228 0.30915248 0.19588102 -0.0030538763 0.22204906 -0.2967471 0.24759325
-0.27197865 -0.25809836 -0.14423083 -0.23418742 0.28335676 -0.30833957 -0.1953487 0.27092043
-0.16322976 -0.021174064 0.19299495 0.16863962 -0.2195357 -0.26657572 0.23730734 -0.27021697
-0.19742237 0.17466539 -0.17459656 0.12857044 -0.28266603 -0.29097596 -0.26168114 -0.00810157
-0.25988173 -0.26251698 0.106113374 0.17727928 -0.12228017 0.0008743348 -0.124258295 0.240174
0.1609372 -0.057004917 -0.20378467 0.17187847 0.09757789 -0.15109551 0.013827942 0.19141407
0.17802076 -0.18462707 0.05047284 0.050360054 0.14729793 -0.0975828 0.20019583 -0.08557839
-0.28478435 0.29132155 0.24191348 -0.1741753 -0.2527563 -0.15345092 0.18389827 -0.04928044
0.1999066 -0.002330359 -0.07437408 -0.13314292 -0.1420667 -0.047664277 -0.09901939 -0.08078982
-0.16357289 -0.046459954 0.24924411 -0.05595104 0.24664238 0.17040662 -0.012638289 0.004831839
0.09149617 -0.071603455 0.1358028 0.20315921 -0.048576135 -0.15301082 0.088399 0.13871147
0.2112174 0.13281377 -0.113684244 -0.022694672 0.030438574 0.11839002 0.27896953 0.008579151
-0.16697547 0.12833928 -0.107396536 -0.017095694 -0.123454094 0.17259127 0.18059713 0.24118984
-0.16138616 -0.25688347 0.0014701941 0.21201733 0.09885694 0.14786175 -0.14221933 0.13414042
-0.28196913 0.17953734 -0.05423116 -0.29847854 0.15550317 -0.12147266 -0.15780744 -0.0013969972
-0.2534265 0.289332 -0.30623132 0.16056949 -0.1762773 0.14142358 -0.12064153 -0.124117404
0.26247093 0.24804671 -0.078012355 0.024078555 -0.09267833 0.15496339 0.26661217 0.011281364
-0.11434673 -0.03417574 -0.08193614 -0.27988714 -0.09399576 -0.24538383 0.24801755 -0.101385884
0.21219459 0.21021356 -0.19631666 0.2907009 0.29900008 0.15611307 0.06358058 0.10879335
0.01661969 0.036810584 0.09827035 0.113475926 -0.012241956 0.048693955 -0.18178488 0.15070146
0.14747891 -0.008056108 0.18776453 -0.20635009 0.28335452 -0.18552068 0.20629913 -0.117068954
0.15820174 0.18390572 -0.022437785 -0.30365625 -0.3028373 0.16204579 -0.19025731 0.20987956
0.28603917 0.26353952 -0.19105507 -0.041845843 0.261263 0.19000502 -0.28529006 -0.09845891
0.13097975 -0.25901073 -0.28184453 -0.080779724 0.035775702 0.20024633 0.103582785 0.13268508
-0.25250188 -0.03412737 -0.03788001 0.14326161 0.085254915 0.04334517 0.038386896 0.11895739
-0.2544431 0.15251765 -0.08907985 -0.009108841 -0.17598851 -0.036255803 -0.2009349 -0.13407424
-0.21631743 -0.22405359 0.24700588 0.15652144 -0.15771964 -0.21582782 -0.16504443 0.048945975
0.24230899 -0.08681517 0.25861213 -0.2472512 0.086693995 0.20522885 -0.2932651 -0.19162682
0.20177001 -0.20128821 0.24652205 0.2897362 0.04560761 0.14188002 -0.10581976 -0.061767332
-0.1317224 0.20229173 0.22896165 -0.28324193 0.19187927 -0.25365704 -0.10230479 -0.00062679045
0.01413178 0.2880988 -0.22443625 0.11298211 -0.29236943 0.15374172 -0.16620772 -0.014962532
00000000: 9733 aabd a548 8d3d 6a5b 43be 1ccc 81be
00000010: 0ded c23d c78e 893e 9317 773d a009 01be
00000020: f978 833e 70de 3cbe 3c49 9e3e 0995 483e
00000030: 8b23 48bb d460 633e 3cef 97be 1689 7d3e
00000040: c940 8bbe 7825 84be 3fb1 13be d4ce 6fbe
00000050: 2314 913e afde 9dbe 7d09 48be 15b6 8a3e
00000060: b425 27be 3b75 adbc 78a0 453e ddaf 2c3e
00000070: f7cd 60be 9d7c 88be b200 733e e159 8abe
00000080: 1729 4abe 7cdb 323e 71c9 32be f8a7 033e
00000090: 9ab9 90be cdfa 94be 12fb 85be 73bc 04bc
000000a0: 380f 85be a068 86be f851 d93d b388 353e
000000b0: 076e fabd 9d33 653a 227b febd 2cf0 753e
000000c0: b9cc 243e fd7d 69bd eeac 50be e900 303e
000000d0: ebd6 c73d c8b8 1abe 988e 623c 0d02 443e
000000e0: 134b 363e e10e 3dbe 9cbc 4e3d 5846 4e3d
000000f0: 45d5 163e 7ed9 c7bd 2300 4d3e b943 afbd
00000100: 41cf 91be 1928 953e 2bb8 773e 035b 32be
00000110: 4669 81be 3d22 1dbe d44f 3c3e 49da 49bd
00000120: 51b4 4c3e f0b8 18bb 7051 98bd 9e56 08be
00000130: ef79 11be 9e3b 43bd aeca cabd 2275 a5bd
00000140: a77f 27be cb4c 3ebd d939 7f3e eb2c 65bd
00000150: d28f 7c3e 137f 2e3e d310 4fbc 6754 9e3b
00000160: 5862 bb3d d5a4 92bd e40f 0b3e f808 503e
00000170: c5f7 46bd deae 1cbe 890a b53d 610a 0e3e
00000180: 6049 583e 5500 083e 49d3 e8bd 2dea b9bc
00000190: 515a f93c 7876 f23d 18d5 8e3e 918f 0c3c
000001a0: 9efb 2abe 5f6b 033e b7f2 dbbd 450c 8cbc
000001b0: 80d5 fcbd c4bb 303e 74ee 383e 78fa 763e
000001c0: 6a42 25be 3b86 83be 87b3 c03a 121b 593e
000001d0: 8275 ca3d 1269 173e f2a1 11be 1b5c 093e
000001e0: 425e 90be a3d8 373e 7e21 5ebd 2ed2 98be
000001f0: 393c 1f3e a8c6 f8bd 4698 21be 731b b7ba
00000200: 1ec1 81be 5323 943e 5aca 9cbe 546c 243e
00000210: 0982 34be 58d1 103e e812 f7bd 4431 febd
00000220: 9762 863e f5ff 7d3e f1c4 9fbd 6440 c53c
00000230: 23ce bdbd b9ae 1e3e 6481 883e 78d5 383c
00000240: 9e2e eabd dcfb 0bbd 23ce a7bd 5e4d 8fbe
00000250: d980 c0bd e645 7bbe 50f8 7d3e 67a3 cfbd
00000260: 8a49 593e 3942 573e 3c07 49be c0d6 943e
00000270: 8a16 993e 1bdc 1f3e 8936 823d 0ccf de3d
00000280: 0426 883c b2c6 163d f741 c93d 1166 e83d
00000290: 7c92 48bc 5073 473d d125 3abe 7c51 1a3e
000002a0: b604 173e c4fd 03bc 5845 403e 704d 53be
000002b0: d813 913e 22f9 3dbe 1440 533e d9c1 efbd
000002c0: a3ff 213e c851 3c3e 72cf b7bc d578 9bbe
000002d0: 7e0d 9bbe 55ef 253e d0d2 42be abea 563e
000002e0: ba73 923e a7ee 863e f1a3 43be 8c66 2bbd
000002f0: 44c4 853e ad90 423e 8a11 92be d3a4 c9bd
00000300: 8e1f 063e 0e9d 84be ed4d 90be d76f a5bd
00000310: 8b89 123d 600d 4d3e 3623 d43d 99de 073e
00000320: ed47 81be 24c9 0bbd 1228 1bbd 2cb3 123e
00000330: 219a ae3d b48a 313d 943b 1d3d ef9f f33d
00000340: 5e46 82be 962d 1c3e 7f6f b6bd 403d 15bc
00000350: 5536 34be f780 14bd e1c1 4dbe c24a 09be
00000360: 5182 5dbe 4e6e 65be 1cef 7c3e 2847 203e
00000370: 4281 21be f801 5dbe 6801 29be 937b 483d
00000380: d91f 783e 27cc b1bd cf68 843e 6b2f 7dbe
00000390: 9f8c b13d 8327 523e d826 96be d239 44be
000003a0: cc9c 4e3e 7f1e 4ebe 4770 7c3e 4e58 943e
000003b0: 0ccf 3a3d ff48 113e 08b8 d8bd beff 7cbd
000003c0: 3de2 06be 9025 4f3e ec74 6a3e 1605 91be
000003d0: 007c 443e 56df 81be 2c85 d1bd 324f 24ba
000003e0: fb88 673c b081 933e 9ed2 65be 2a63 e73d
000003f0: 72b1 95be 786e 1d3e 5b32 2abe 6825 75bc

embed.0.bias f4 [128]
-0.22732599 -0.0031386358 -0.21548453 -0.117620945 -0.23843537 0.17594561 0.0006722736 0.07742786
0.044801522 -0.08594046 0.0070836334 0.0028930786 0.07459472 0.27668178 0.1886216 0.039202496
-0.23333809 0.11484319 0.021997735 0.06042142 -0.13432433 -0.23842616 -0.08497338 0.27196172
0.24770008 -0.16925618 -0.27265328 -0.025421122 -0.08845045 0.0003539886 0.18526244 -0.11105754
0.047493216 0.21358374 -0.030259736 -0.13865164 0.24369073 0.08276781 -0.08608393 -0.18328069
-0.06700615 -0.10810789 -0.21070404 -0.23155305 0.10342755 -0.25359672 -0.08775166 0.03447666
-0.18033853 -0.19874267 -0.1941598 -0.27712074 -4.5255474e-06 -0.2550044 -0.27238855 -0.029492559
-0.19092178 -0.22074123 0.25099057 0.22723046 -0.26171178 0.13018554 -0.09967918 -0.12674117
-0.044088766 -0.23021954 0.17452559 -0.094079964 -0.18749562 -0.000987689 0.12694006 -0.00013750928
-0.036000285 -0.086208194 -0.016990606 0.0856568 -0.20630974 0.03485232 -0.09284164 -0.061101135
0.13338038 0.058469366 0.25582188 0.041020233 0.11214565 0.000350221 0.05439804 0.15722546
0.11650038 0.19167912 0.059706647 0.093904 -0.115892634 0.016127052 -0.07734609 0.2190131
0.27351114 -0.038962662 -0.19958363 -0.27757102 -0.023797238 -0.2458337 0.22736013 0.07925566
0.14870782 -0.19445202 0.09585414 -0.028961908 0.043228604 0.061632965 -0.13363503 -0.14344302
0.062913336 0.21238476 -0.009783742 -0.27401194 0.27199933 0.13773063 -0.110603414 0.2661267
0.281239 -0.26313764 -0.046202008 0.2737106 0.0803413 -0.09101424 0.23887601 -0.25403595
00000000: 25c8 68be 92b1 4dbb faa7 5cbe 40e3 f0bd
00000010: 6728 74be 162b 343e 853b 303a 7f92 9e3d
00000020: cd81 373d 8d01 b0bd d31d e83b ce99 3d3b
00000030: 1ec5 983d 3ca9 8d3e 0526 413e cc92 203d
00000040: 2ef0 6ebe e832 eb3d 9834 b43c 737c 773d
00000050: 518c 09be fd25 74be 8606 aebd 913e 8b3e
00000060: 17a5 7d3e 7e51 2dbe 3699 8bbe f53f d0bc
00000070: 8225 b5bd 8c97 b939 70b5 3d3e 2372 e3bd
00000080: 3f88 423d b2b5 5a3e 44e3 f7bc b2fa 0dbe
00000090: 108a 793e 2b82 a93d c64c b0bd efad 3bbe
000000a0: 853a 89bd ab67 ddbd cdc2 57be 3e1c 6dbe
000000b0: d3d1 d33d 6ed7 81be 24b7 b3bd 6637 0d3d
000000c0: aaaa 38be 3383 4bbe d4d1 46be c5e2 8dbe
000000d0: 28da 97b6 f08f 82be 8376 8bbe 619a f1bc
000000e0: 0081 43be fd09 62be d681 803e 1aaf 683e
000000f0: 16ff 85be 5c4f 053e 9924 ccbd 70c8 01be
00000100: 6c96 34bd acbe 6bbe d6b6 323e ffac c0bd
00000110: dafe 3fbe 5875 81ba 93fc 013e 5e30 10b9
00000120: 0975 13bd ec8d b0bd e22f 8bbc d56c af3d
00000130: dc42 53be 4ec1 0e3d c223 bebd 2f45 7abd
00000140: de94 083e 937d 6f3d 16fb 823e d504 283d
00000150: 9eac e53d de9d b739 7bd0 5e3d b6ff 203e
00000160: c097 ee3d 8847 443e f58e 743d be50 c03d
00000170: 1e59 edbd e11c 843c a067 9ebd f844 603e
00000180: a709 8c3e 5097 1fbd a75f 4cbe ca1d 8ebe
00000190: 6df2 c2bc d4bb 7bbe 18d1 683e cb50 a23d
000001a0: dd46 183e 6e1e 47be 2d4f c43d 8641 edbc
000001b0: 7a10 313d d972 7c3d 9fd7 08be bae2 12be
000001c0: b5d8 803d 647b 593e fd4b 20bc 4b4b 8cbe
000001d0: 7f43 8b3e 4209 0d3e 0b84 e2bd c241 883e
000001e0: 8ffe 8f3e fab9 86be 513e 3dbd cc23 8c3e
000001f0: fb89 a43d ad65 babd ea9b 743e 0011 82be

embed.1.weight f4 [128]
1.0011208 1.0017436 0.9888187 1.0007176 1.0000079 0.9958757 1.0049956 0.9990846
0.9960117 0.99790555 1.0024104 0.99294025 0.99673784 0.9903805 0.9983962 1.0070168
0.9933222 0.9950287 0.99941266 0.9949731 1.0062548 0.9962839 0.9978326 1.0084432
0.99357444 1.0034117 0.9915265 1.000109 0.9956908 1.0026668 0.9995321 0.9966783
0.99437606 0.99805146 0.99597234 0.9945319 1.006234 1.0074866 0.99886775 0.9953177
0.99834543 0.99755156 0.9952697 0.996872 0.9935596 1.0008885 0.9975217 1.0055054
0.99530685 0.9961525 0.9964738 1.0064863 0.9995498 0.9913067 1.0017169 1.0113417
0.9912278 0.9956538 0.99373823 0.99416703 0.9984167 0.99724346 0.99031067 1.0057241
1.0035459 0.99512386 0.98864084 1.0066218 0.9998657 0.99610984 0.9985761 0.99580944
1.0004482 0.9947864 0.9927159 0.9973219 1.0074795 1.0042868 0.9960578 0.9925877
0.9998958 0.99632615 0.9969711 0.9942208 0.98797077 0.9956599 0.9903458 1.0033325
0.9972171 0.99989575 1.0032839 1.0089626 0.99490637 0.98939407 0.99487936 0.99293417
0.9916197 0.9979174 1.0071692 0.9951434 0.99268687 0.9944489 1.0024059 0.9917537
1.0118424 0.99442047 1.0009993 0.99598414 0.99536955 0.99399406 0.9960629 0.99432147
0.99474776 0.9958826 0.99740505 0.9959082 0.99424964 0.9995462 0.99935603 0.9946734
0.9984257 0.99590504 0.99603593 1.0056273 0.99721205 0.9997937 1.0055764 0.9970856
00000000: ba24 803f 2239 803f 3923 7d3f 8417 803f
00000010: 4200 803f b6f1 7e3f b2a3 803f 02c4 7f3f
00000020: 9ffa 7e3f bd76 7f3f fc4e 803f 5531 7e3f
00000030: 362a 7f3f 9489 7d3f e596 7f3f ede5 803f
00000040: 5d4a 7e3f 33ba 7e3f 82d9 7f3f 8fb6 7e3f
00000050: f5cc 803f 760c 7f3f f571 7f3f ab14 813f
00000060: e55a 7e3f cb6f 803f aed4 7d3f 9203 803f
00000070: 98e5 7e3f 6357 803f 56e1 7f3f 4f26 7f3f
00000080: 6e8f 7e3f 4d80 7f3f 0bf8 7e3f a599 7e3f
00000090: 47cc 803f 52f5 803f ccb5 7f3f 24cd 7e3f
000000a0: 9193 7f3f 8a5f 7f3f ffc9 7e3f 0133 7f3f
000000b0: ec59 7e3f 1d1d 803f 955d 7f3f 67b4 803f
000000c0: 6ecc 7e3f da03 7f3f e818 7f3f 8bd4 803f
000000d0: 7fe2 7f3f 47c6 7d3f 4238 803f a573 813f
000000e0: 1bc1 7d3f 2be3 7e3f a165 7e3f bb81 7e3f
000000f0: 3d98 7f3f 594b 7f3f 0085 7d3f 91bb 803f
00000100: 3174 803f 70c0 7e3f 9117 7d3f fcd8 803f
00000110: 33f7 7f3f 0e01 7f3f afa2 7f3f 5eed 7e3f
00000120: b00e 803f 52aa 7e3f a122 7e3f 7d50 7f3f
00000130: 17f5 803f 788c 803f a5fd 7e3f 3a1a 7e3f
00000140: 2cf9 7f3f 3b0f 7f3f 7f39 7f3f 4185 7e3f
00000150: a7eb 7c3f 91e3 7e3f 4d87 7d3f 336d 803f
00000160: 9f49 7f3f 2bf9 7f3f 9b6b 803f b025 813f
00000170: 2fb2 7e3f ee48 7d3f 6ab0 7e3f ef30 7e3f
00000180: cada 7d3f 8477 7f3f ecea 803f b8c1 7e3f
00000190: ba20 7e3f 3494 7e3f d64e 803f 92e3 7d3f
000001a0: 0d84 813f 5792 7e3f bf20 803f d1f8 7e3f
000001b0: 8ad0 7e3f 6576 7e3f fafd 7e3f da8b 7e3f
000001c0: caa7 7e3f 29f2 7e3f f055 7f3f d7f3 7e3f
000001d0: 2587 7e3f 42e2 7f3f ccd5 7f3f eaa2 7e3f
000001e0: d498 7f3f a2f3 7e3f 36fc 7e3f 65b8 803f
000001f0: 4a49 7f3f 7bf2 7f3f bab6 803f 0041 7f3f

embed.1.bias f4 [128]
-0.012841042 0.010836145 -0.0054465295 -0.00018986533 0.00036321225 0.0066340677 0.010859248 -0.008951224
0.008326735 0.00952591 -0.0064544105 -0.006408834 0.005616966 -0.0052853413 0.0071683507 0.012131165
0.0010284822 0.001407918 -0.008988082 -0.0024567507 0.008169752 -0.008788984 0.0061655384 0.009012799
0.013289453 -0.012049772 -0.0058980854 0.00043611776 0.0016053504 0.010087447 -0.009734166 -0.0077585294
0.0006081535 -0.00862666 -0.0081550535 0.006941554 -0.009476175 0.008633918 0.0066743987 0.0023806663
0.012867154 0.0065972563 -0.0062567918 -0.0032708426 -0.0077812555 -0.0063962955 -0.002019931 0.0062276158
0.005717766 -0.005668753 0.005251637 0.006379222 0.009433811 0.0020269663 0.0075418027 0.0077876276
0.004836782 -0.00082561886 -0.009575655 -0.005894813 -0.0019661316 0.008714489 -0.0047795484 0.009200538
-0.00264985 0.0044066524 -0.005669106 0.0085413 0.014465716 -0.004956114 0.007864336 -0.009561738
-0.01005964 -0.010646348 -0.0016658062 -0.009423973 0.00763182 0.014254308 0.006454234 0.0066920095
-0.0064182533 0.002073487 -0.0026825569 -0.005465402 -0.006635715 -0.006285143 0.004440616 0.010109885
0.0076782373 0.009716054 0.013802421 0.01346349 -0.0043290723 -0.002365392 0.007502022 -0.0009317687
0.001222559 0.008441934 0.014558711 -0.0018775908 -0.00523962 -0.006046359 0.008633854 0.0022858595
0.0020817101 -0.0061828895 0.007979443 -0.0055921148 -0.008828439 0.007764987 4.977701e-05 0.00097460416
-0.003260799 -0.00072339893 -0.009639001 -0.0058735707 -0.005200729 0.009037698 -0.008239819 -0.0064634006
0.0064956914 0.0023686858 0.0033249527 0.0052440083 -0.007532577 -0.007230508 0.006996877 0.009057285
00000000: 3c63 52bc 168a 313c cd78 b2bb 9616 47b9
00000010: 866d be39 9862 d93b fdea 313c 28a8 12bc
00000020: dc6c 083c 9012 1c3c 857f d3bb 3201 d2bb
00000030: 870e b83b a830 adbb 7ce4 ea3b cbc1 463c
00000040: 23ce 863a e489 b83a c042 13bc 7001 21bb
00000050: 6cda 053c acff 0fbc 4908 ca3b 6baa 133c
00000060: 02bc 593c 686c 45bc ba44 c1bb bca6 e439
00000070: 9f6a d23a d245 253c 0d7c 1fbc 433b febb
00000080: 7e6c 1f3a d656 0dbc c69c 05bc fa75 e33b
00000090: f541 1bbc 4775 0d3c eab4 da3b f404 1c3b
000000a0: c1d0 523c cc2d d83b c605 cdbb a25b 56bb
000000b0: e7f9 febb 0498 d1bb d260 04bb 0711 cc3b
000000c0: 195c bb3b f2c0 b9bb ed15 ac3b cb08 d13b
000000d0: 4590 1a3c dad6 043b 3a21 f73b 5b2f ff3b
000000e0: de7d 9e3b 586e 58ba 35e3 1cbc 4729 c1bb
000000f0: 37da 00bb 37c7 0e3c c29d 9cbb dabd 163c
00000100: 1ba9 2dbb ae65 903b e8c3 b9bb cff0 0b3c
00000110: 9c01 6d3c e666 a2bb 6ad9 003c d6a8 1cbc
00000120: 30d1 24bc 056e 2ebc 2e57 daba 0267 1abc
00000130: 5914 fa3b e78a 693c 0a7e d33b a548 db3b
00000140: 3650 d2bb 57e3 073b d6cd 2fbb 1d17 b3bb
00000150: 6970 d9bb 9af3 cdbb 9682 913b eea3 253c
00000160: b999 fb3b 1630 1f3c 8d23 623c f895 5c3c
00000170: e4da 8dbb b104 1bbb 86d3 f53b f041 74ba
00000180: 463e a03a 0a50 0a3c a987 6e3c 7e19 f6ba
00000190: 1eb1 abbb 8920 c6bb 0275 0d3c 5cce 153b
000001a0: 4d6d 083b d699 cabb 36bc 023c 0f3e b7bb
000001b0: 28a5 10bc 6f71 fe3b a8c7 5038 947c 7f3a
000001c0: 21b3 55bb 7ba2 3dba e7ec 1dbc 1577 c0bb
000001d0: e06a aabb da12 143c 4e00 07bc efca d3bb
000001e0: cfd9 d43b f43b 1b3b 73e7 593b eed5 ab3b
000001f0: d6d3 f6bb e6ed ecbb 0f46 e53b 0265 143c

embed.1.running_mean f4 [128]
-0.22916353 -0.0041382895 -0.21731998 -0.11942163 -0.24027462 0.17777182 0.00059451995 0.07918983
0.046489365 -0.087713405 0.00831692 0.003873018 0.07635249 0.2785257 0.19045126 0.040867668
-0.23517656 0.116642065 0.023542566 0.062153473 -0.13613467 -0.24026541 -0.08674531 0.27380514
0.24954061 -0.1710804 -0.27449676 -0.026999813 -0.09022627 -5.3341206e-05 0.18709119 -0.11285374
0.04919038 0.21541879 -0.03187569 -0.14046405 0.24553072 0.0845369 -0.08785684 -0.18510893
-0.068751276 -0.109901875 -0.21253853 -0.23339127 0.105217814 -0.25543797 -0.08952669 0.03611812
-0.18216598 -0.20057473 -0.19599076 -0.27896503 -9.659191e-06 -0.25684583 -0.27423206 -0.031103166
-0.19275203 -0.22257763 0.2528315 0.22906797 -0.26355407 0.13199367 -0.101466045 -0.12854737
-0.045773838 -0.23205751 0.17635138 -0.09586174 -0.18932498 -0.0017373268 0.12874646 -0.00014896777
-0.03765012 -0.087981425 -0.018472292 0.08742942 -0.20814325 0.03649603 -0.094622135 -0.06283459
0.13519017 0.06019695 0.2576635 0.042693283 0.11394262 -5.7666515e-05 0.056115467 0.15904555
0.11830033 0.19350949 0.061437003 0.09568572 -0.11769223 0.017594896 -0.079108 0.22084914
0.27535474 -0.040626798 -0.20141584 -0.27941507 -0.025361193 -0.24767399 0.22919762 0.08102015
0.1505246 -0.19628306 0.097637214 -0.030568495 0.044910546 0.06336756 -0.13544494 -0.14525755
0.064650565 0.21421964 -0.011112073 -0.27585557 0.27384287 0.1395426 -0.11239927 0.26796952
0.28308338 -0.26498014 -0.047894713 0.27555424 0.08210723 -0.09279277 0.24071528 -0.25587735
00000000: d8a9 6abe 7d9a 87bb 2189 5ebe 5493 f4bd
00000010: 8d0a 76be d109 363e 8fd9 1b3a 472e a23d
00000020: a26b 3e3d 16a3 b3bd b143 083c 76d2 7d3b
00000030: b25e 9c3d ec9a 8e3e a805 433e db64 273d
00000040: 20d2 70be 09e2 ee3d 57dc c03c a494 7e3d
00000050: e366 0bbe 2308 76be 86a7 b1bd 3030 8c3e
00000060: 9387 7f3e b32f 2fbe d78a 8cbe b62e ddbc
00000070: 8dc8 b8bd afba 5fb8 d594 3f3e dd1f e7bd
00000080: da7b 493d be96 5c3e 1590 02bd cfd5 0fbe
00000090: 686c 7b3e af21 ad3d 49ee b3bd 328d 3dbe
000000a0: 78cd 8cbd 3c14 e1bd b3a3 59be 1ffe 6ebe
000000b0: 707c d73d c4c8 82be c559 b7bd 98f0 133d
000000c0: b889 3abe 7663 4dbe cdb1 48be 81d4 8ebe
000000d0: e90d 22b7 4c81 83be 2568 8cbe 11cc febc
000000e0: ca60 45be 64eb 63be 2173 813e cb90 6a3e
000000f0: 8ff0 86be 5929 073e 6ecd cfbd eca1 03be
00000100: 597d 3bbd 7ca0 6dbe 7595 343e 2953 c4bd
00000110: 68de 41be 04b7 e3ba 1dd6 033e 3b34 1cb9
00000120: 0337 1abd 9b2f b4bd 3453 97bc 320e b33d
00000130: 8123 55be dc7c 153d 40c9 c1bd 6caf 80bd
00000140: 4b6f 0a3e 1491 763d 78ec 833e 27df 2e3d
00000150: c05a e93d f3de 71b8 55d9 653d d6dc 223e
00000160: 7247 f23d 5a27 463e 5ea5 7b3d e0f6 c33d
00000170: a008 f1bd 2c23 903c 6003 a2bd 4726 623e
00000180: 4cfb 8c3e 4968 26bd f43f 4ebe 7e0f 8fbe
00000190: 47c2 cfbc 409e 7dbe c8b2 6a3e e4ed a53d
000001a0: 1f23 1a3e 6dfe 48be 05f6 c73d c86a fabc
000001b0: 1ff4 373d dac6 813d 14b2 0abe 65be 14be
000001c0: 8467 843d 655c 5b3e 6a0f 36bc f13c 8dbe
000001d0: 2235 8c3e 41e4 0e3e 9731 e6bd 4d33 893e
000001e0: 4ef0 903e 7aab 87be 3f2d 44bd 7215 8d3e
000001f0: d627 a83d 230a bebd 117e 763e 5b02 83be

embed.1.running_var f4 [128]
0.22563185 0.7220674 0.2175211 0.92188287 0.16130365 0.5656651 0.28921115 0.094580464
0.1868765 0.14665535 0.12640661 0.14990377 0.22664955 0.22559376 0.71708894 0.16517086
0.40311715 0.115700126 0.052410137 0.48675203 0.6979773 0.30735967 0.32201633 0.49454874
0.030912958 0.21544231 0.10973954 0.7972793 0.33395365 0.13738504 0.42553437 0.24220918
0.08379402 0.46193868 0.13388468 0.08377558 0.3908505 0.99700713 0.08845757 0.121116266
0.318905 0.11560694 0.1579798 0.22074652 0.16371019 0.15815975 0.56104857 0.37390906
0.16616714 0.71943796 0.35160074 0.31618193 0.1046665 0.14107753 0.21238098 0.13002719
0.17569938 0.44496432 0.09929018 0.33082944 0.44623792 0.59570825 0.14550182 0.18292665
0.17477316 0.1592384 0.11579466 0.5934043 0.113523945 0.23689054 0.10952169 0.5545795
0.11734225 0.16292632 0.13583177 1.2714914 0.25439084 0.32963967 0.9401018 0.19041507
0.1885458 0.1832068 0.22838604 0.18682455 0.13385645 0.3603391 0.108532295 0.097454295
0.1730113 0.30060992 0.10212112 0.355725 0.4264529 0.48699048 0.23796733 0.13914505
0.095421724 0.2414711 0.1701478 0.14083882 0.2751499 0.39713663 0.13489586 0.13283691
0.11725243 0.9846937 0.16218211 0.1867761 0.61994606 0.443792 0.12396427 0.58189934
0.11359717 0.19140032 0.5188216 0.18778323 0.06285794 0.13208783 0.816618 0.32706505
0.29120746 1.3881682 0.07490418 0.1537719 0.899507 0.33201393 0.7596354 0.48685414
00000000: 090c 673e 69d9 383f dabd 5e3e 8400 6c3f
00000010: c92c 253e 6ecf 103f 7c13 943e 67b3 c13d
00000020: 8e5c 3f3e d22c 163e bc70 013e 6080 193e
00000030: d216 683e 0d02 673e 2493 373f 8d22 293e
00000040: 5f65 ce3e 30f4 ec3d 03ac 563d 9037 f93e
00000050: a4ae 323f 3f5e 9d3e 53df a43e 7e35 fd3e
00000060: 2c3d fd3c e99c 5c3e 20bf e03d 7f1a 4c3f
00000070: f9fb aa3e aaae 0c3e a4df d93e af05 783e
00000080: 339c ab3d 3a83 ec3e 1119 093e 8892 ab3d
00000090: 8f1d c83e dc3b 7f3f 3e29 b53d ce0b f83d
000000a0: 8447 a33e 55c3 ec3d 75c5 213e 600b 623e
000000b0: a5a3 273e a1f4 213e e1a0 0f3f 0271 bf3e
000000c0: b827 2a3e 162d 383f 0305 b43e 99e2 a13e
000000d0: 645b d63d a176 103e 667a 593e d925 053e
000000e0: 8aea 333e 5dd2 e33e a658 cb3d 7a62 a93e
000000f0: 4c79 e43e 5680 183f 6efe 143e 2051 3b3e
00000100: bcf7 323e 640f 233e c025 ed3d 58e9 173f
00000110: 3e7f e83d 6f93 723e e84c e03d ecf8 0d3f
00000120: 2251 f03d 28d6 263e 7c17 0b3e 3bc0 a23f
00000130: 843f 823e 88c6 a83e 83aa 703f 2bfc 423e
00000140: 2612 413e 909a 3b3e 08de 693e ef4e 3f3e
00000150: aa11 093e 5e7e b83e 2e46 de3d 1e96 c73d
00000160: e029 313e 8be9 993e e124 d13d 9621 b63e
00000170: 0958 da3e d156 f93e b5ad 733e 0a7c 0e3e
00000180: 776c c33d 3344 773e 3a3b 2e3e 0d38 103e
00000190: 73e0 8c3e 7e55 cb3e 2422 0a3e 6606 083e
000001a0: 0b22 f03d e314 7c3f 1113 263e 3c42 3f3e
000001b0: c9b4 1e3f b438 e33e fbe0 fd3d 5bf7 143f
000001c0: a2a5 e83d 72fe 433e 7ed1 043f 3f4a 403e
000001d0: aabb 803d 0842 073e e10d 513f 1275 a73e
000001e0: 2519 953e 7faf b13f 5d67 993d 6276 1d3e
000001f0: 1746 663f bbfd a93e 7777 423f f244 f93e

embed.4.weight f4 [128, 128]
-0.06060571 0.034742836 0.010691943 0.078873105 -0.001805817 -0.010126863 -0.017632538 0.034236744
-0.037267547 -0.0073379613 -0.019594114 0.056287862 -0.0530966 0.037648626 -0.03443212 -0.082116716
-0.076347716 -0.084991135 0.06010442 0.08612139 -0.0051595625 -0.0074820286 0.08633161 0.035272144
-0.052224018 0.05845609 -0.022789435 -0.08043048 0.021882605 -0.023914928 -0.0020966644 0.0059894337
-0.019932054 0.07460182 0.009122137 -0.061289966 0.0033892363 -0.04502202 -0.040900566 -0.036388196
-0.0058234027 0.03647262 -0.01524481 -0.02968724 0.008551618 0.07375017 0.077988826 0.05739122
-0.08174888 0.034561537 -0.033446703 0.010468037 -0.035002388 0.054031238 0.032454368 0.077635825
-0.026999556 -0.025515499 0.06224141 -0.08768664 0.038312133 -0.052195612 0.038373537 0.08336266
-0.0150084095 0.04337894 0.018840825 0.054850753 0.011195779 -0.021216713 0.05514414 -0.07861016
0.07738765 -0.02696563 0.070786916 -0.08889115 0.085631296 -0.01367675 0.07283728 0.07235988
-0.010767347 -0.019764973 -0.064535394 -0.07440489 -0.028601928 0.029157514 0.003898212 -0.023880903
-0.08477494 0.007223576 -0.09008768 -0.07003466 0.019226473 -0.037815817 -0.009988174 -0.062842906
0.062020976 -0.07441169 -0.048501454 -0.0687634 0.055461917 0.05247811 0.049174707 -0.07454279
0.06684136 0.028449642 0.043184362 -0.048014197 -0.026778115 0.038665995 0.033110622 -0.049292997
-0.08851378 0.012614068 -0.06739811 -0.071348324 -0.03319675 0.08087224 0.03570426 -0.05640993
0.057584144 0.092697255 -0.04428737 -0.072506726 0.01446484 -0.04629019 -0.05903896 -0.06817337
-0.082970776 -0.045862522 -0.01269997 0.010708787 0.0062941103 -0.019039357 -0.03758438 -0.078078076
0.009635395 0.04641864 -0.07250148 0.03759078 0.05163637 -0.020456523 -0.040952995 0.032552987
0.06919017 -0.010486613 -0.013771553 -0.030881695 -0.05285237 0.01409899 0.021513158 0.055863786
-0.051552206 -0.0077505712 -0.03253683 0.07398657 0.036897108 -0.020050088 -0.0017316799 0.024377324
0.0843715 0.052592944 -0.04061056 -0.05687711 0.0252018 -0.037164267 -0.032443836 -0.06672898
-0.02715599 -0.039543997 0.007532069 -0.060389604 -0.010710527 0.00609915 0.025387092 0.051158033
0.045934167 0.015206314 0.039543286 -0.009040329 -0.07973157 -0.0709071 0.026700387 -0.085380934
-0.042830292 0.03729761 0.02655291 -0.037258815 -0.03185139 0.009049935 0.055211328 -0.025500216
0.09233643 0.031405028 0.00082700135 -0.0298664 -0.026641015 0.06290924 -0.033257622 0.060303267
0.06881558 0.014022539 -0.007774301 0.08887261 0.062690236 -0.07568546 -0.011031352 0.051626354
0.022456268 -0.086870305 -0.051810652 0.0376695 0.03682921 -0.065509036 -0.08587059 0.04810739
0.08185677 0.05612331 -0.024957629 -0.020894045 -0.02565838 -0.07096297 -0.04310457 0.010925957
-0.019514982 -0.06479077 0.008759808 -0.07289078 0.07304318 -0.014854584 -0.011666944 -0.045115836
0.06958482 0.035748348 0.0008163474 0.008809577 0.0040930575 -0.027813038 0.008002812 0.06637245
0.042001963 -0.06005034 0.03101703 0.06870414 -0.05572304 -0.062171657 -0.0822912 -0.03449452
0.025169311 0.07417911 -0.028037496 -0.04255982 0.060858563 0.082843564 -0.007587054 0.038530406
00000000: b13d 78bd 814e 0e3d 422d 2f3c 3988 a13d
00000010: 2ab1 ecba 24eb 25bc 1d72 90bc d43b 0c3d
00000020: dba5 18bd 4873 f0bb d683 a0bc 1a8e 663d
00000030: d27b 59bd 7235 1a3d b208 0dbd cf2c a8bd
00000040: 315c 9cbd d50f aebd 0d30 763d 6960 b03d
00000050: 8c11 a9bb ce2b f5bb a1ce b03d 8679 103d
00000060: dae8 55bd a76f 6f3d e9b0 babc bcb8 a4bd
00000070: 2643 b33c 3de9 c3bc 3168 09bb 0343 c43b
00000080: 8c48 a3bc d7c8 983d 0475 153c 300b 7bbd
00000090: f31d 5e3b 0269 38bd 5a87 27bd ca0b 15bd
000000a0: 3ed2 bebb 5064 153d 5ec5 79bc a832 f3bc
000000b0: 161c 0c3c 540a 973d 9bb8 9f3d 0e13 6b3d
000000c0: f56b a7bd 6690 0d3d 69ff 08bd 2182 2b3c
000000d0: aa5e 0fbd dc4f 5d3d dfee 043d 88ff 9e3d
000000e0: 2c2e ddbc e105 d1bc d9f0 7e3d 0e95 b3bd
000000f0: 2fed 1c3d 11cb 55bd 922d 1d3d 0bba aa3d
00000100: d5e5 75bc 1eae 313d 1358 9a3c 2fab 603d
00000110: 806e 373c acce adbc d2de 613d 5dfe a0bd
00000120: 6b7d 9e3d 06e7 dcbc bbf8 903d 900c b6bd
00000130: 765f af3d 7214 60bc b62b 953d 6b31 943d
00000140: 8769 30bc 27ea a1bc 222b 84bd 9761 98bd
00000150: 974e eabc bddb ee3c 2579 7f3b e2a1 c3bc
00000160: 7c9e adbd bfb3 ec3b e47f b8bd 556e 8fbd
00000170: d680 9d3c c2e4 1abd 70a5 23bc c8b3 80bd
00000180: b509 7e3d 2865 98bd 76a9 46bd d3d3 8cbd
00000190: 092c 633d 49f3 563d 6b6b 493d e4a9 98bd
000001a0: 1fe4 883d 390f e93c 16e2 303d 89aa 44bd
000001b0: c75d dbbc 3c60 1e3d 019f 073d 74e7 49bd
000001c0: b646 b5bd 3cab 4e3c 0508 8abd 121f 92bd
000001d0: 51f9 07bd 58a0 a53d a13e 123d 190e 67bd
000001e0: 5add 6b3d 0fd8 bd3d ac66 35bd 687e 94bd
000001f0: f0fd 6c3c c89a 3dbd d6d2 71bd 7b9e 8bbd
00000200: 95ec a9bd 57da 3bbd 8913 50bc e873 2f3c
00000210: d33e ce3b 6df8 9bbc 14f2 19bd 66e7 9fbd
00000220: c7dd 1d3c 7921 3e3d a87b 94bd caf8 193d
00000230: a980 533d 7094 a7bc 54be 27bd 4856 053d
00000240: 93b3 8d3d 0bd0 2bbc 14a2 61bc 9cfb fcbc
00000250: ba7b 58bd 73ff 663c 5d3c b03c 6dd1 643d
00000260: 6828 53bd 81f8 fdbb 5745 05bd 4586 973d
00000270: 6c21 173d 1540 a4bc 89f9 e2ba f4b2 c73c
00000280: f7ca ac3d b36b 573d 4257 26bd f9f7 68bd
00000290: 0174 ce3c 8f39 18bd d4e3 04bd 34a9 88bd
000002a0: 3d76 debc e3f8 21bd 93cf f63b 175b 77bd
000002b0: 357b 2fbc 61db c73b 97f8 cf3c 168b 513d
000002c0: 7725 3c3d e723 793c 24f8 213d e31d 14bc
000002d0: 4e4a a3bd be37 91bd c5ba da3c 33dc aebd
000002e0: d16e 2fbd 61c5 183d 7d85 d93c b39c 18bd
000002f0: 9a76 02bd 2e46 143c 4625 623d d4e5 d0bc
00000300: e21a bd3d 8fa2 003d 1fcb 583a 61aa f4bc
00000310: 423e dabc 8fd6 803d 2539 08bd 8f00 773d
00000320: 2fef 8c3d cbbe 653c 90bf febb d802 b63d
00000330: bd63 803d fa00 9bbd d8bc 34bc 2876 533d
00000340: 35f6 b73c 0fe9 b1bd 6837 54bd 554b 1a3d
00000350: 3ada 163d 9a29 86bd ebdc afbd 410c 453d
00000360: 86a4 a73d 8ee1 653d f173 ccbc fd29 abbc
00000370: 8631 d2bc 0955 91bd 6b8e 30bd c902 333c
00000380: e2dd 9fbc 06b1 84bd 4c85 0f3c c347 95bd
00000390: aa97 953d a460 73bc b626 3fbc 62cb 38bd
000003a0: 7c82 8e3d dc6c 123d 2600 563a 0b56 103c
000003b0: 0e1f 863b 2bd8 e3bc 3a1e 033c 47ee 873d
000003c0: 400a 2c3d 58f7 75bd 6d17 fe3c c2b4 8c3d
000003d0: d83d 64bd b5a7 7ebd 4a88 a8bd 204a 0dbd
000003e0: df2f ce3c 38eb 973d e4ae e5bc 3553 2ebd
000003f0: d446 793d e3a9 a93d d29c f8bb 0fd2 1d3d

embed.4.bias f4 [128]
-0.036868673 -0.04687549 0.07805003 0.043842245 0.056822233 0.007227976 -0.023976533 0.0067397538
0.035024375 0.08990243 -0.0045719217 0.013928138 0.03519007 -0.070708595 0.012574992 -0.041922405
-0.051257152 -0.019506868 -0.07340275 0.055467278 -0.08950359 -0.076150775 0.01030736 -0.06354309
-0.054945458 -0.08912683 -0.06791292 0.023363039 0.01829593 -0.03189969 0.054856565 -0.025291871
0.0009904504 0.0071105924 -0.015127295 -0.023949603 0.004087166 -0.04720171 -0.008859382 0.08160964
-0.05325092 0.08066305 -0.091154546 0.05944151 0.030142237 -0.07058499 -0.005655374 -0.021066573
0.08529157 0.05187266 -0.060966965 -0.036254004 -0.074206404 0.015332585 0.033444814 0.01618491
-0.012189935 -0.039452955 0.043269597 -0.003747185 0.021367861 -0.02399644 -0.0872421 -0.012528561
0.07586594 -0.029144693 -0.0506856 0.006556306 -0.04200366 -0.064057425 -0.0008441414 -0.03236359
-0.0358086 -0.039577764 -0.030818705 0.05855567 -0.039234646 -0.055530008 0.018143194 0.07234241
-0.044927135 0.015299585 -0.012529343 0.076108605 -0.087825835 0.015804008 0.0055019334 -0.023063602
-0.091845825 -0.004902043 0.02545794 0.009819191 -0.064938515 -0.057568252 0.02359167 0.016603757
-0.082285196 -0.07487618 -0.0037429456 -0.034792475 -0.015777152 -0.0077534346 -0.06844622 0.034152813
-0.074179724 -0.08142299 0.055226803 -0.0012709824 -0.08566873 -0.072830796 0.084539786 -0.07257702
-0.017464733 -0.056849886 -0.04882814 0.053919 -0.0033085567 -0.042319924 -0.021407653 0.0039009408
0.08860182 0.036406584 -0.08198155 0.040682245 0.020555172 0.08087365 -0.07454007 -0.03878015
00000000: 9b03 17bd 8400 40bd b2d8 9f3d ed93 333d
00000010: 6ebe 683d a8d8 ec3b 6f6a c4bc 27d9 dc3b
00000020: b875 0f3d c41e b83d 0fd0 95bb d832 643c
00000030: 7623 103d abcf 90bd 5707 4e3c d4b6 2bbd
00000040: 05f3 51bd decc 9fbc 2e54 96bd a831 633d
00000050: a84d b7bd f0f4 9bbd 34e0 283c e122 82bd
00000060: 7d0e 61bd 2188 b6bd ee15 8bbd d863 bf3c
00000070: 59e1 953c 40a9 02bd 47b1 603d e630 cfbc
00000080: 00d2 813a f9ff e83b 79d8 77bc f531 c4bc
00000090: a2ed 853b 9556 41bd f126 11bc f422 a73d
000000a0: a31d 5abd ab32 a53d 3caf babd f178 733d
000000b0: daec f63c dd8e 90bd b750 b9bb ce93 acbc
000000c0: 59ad ae3d 6d78 543d 7fb8 79bd 147f 14bd
000000d0: 87f9 97bd 8635 7b3c 6efd 083d 3796 843c
000000e0: 4bb8 47bc 6c99 21bd 763b 313d 5593 75bb
000000f0: a70b af3c 2f94 c4bc fcab b2bd 9844 4dbc
00000100: 9a5f 9b3d dac0 eebc b49b 4fbd 48d6 d63b
00000110: 080c 2cbd 8a30 83bd 5f49 5dba af8f 04bd
00000120: 0aac 12bd 4b1c 22bd 8277 fcbc 12d8 6f3d
00000130: 82b4 20bd 6f73 63bd 09a1 943c 4228 943d
00000140: 8405 38bd 1cab 7a3c e047 4dbc d4de 9b3d
00000150: 08de b3bd 6877 813c 9049 b43b e1ef bcbc
00000160: aa19 bcbd 51a1 a0bb 2b8d d03c ace0 203c
00000170: 7cfe 84bd b0cc 6bbd 5143 c13c 9a04 883c
00000180: 2485 a8bd af58 99bd 354c 75bb 8e82 0ebd
00000190: 163f 81bc 8610 febb 882d 8cbd d2e3 0b3d
000001a0: 8aeb 97bd 19c1 a6bd 8035 623d 1897 a6ba
000001b0: 1673 afbd 5028 95bd 3223 ad3d 43a3 94bd
000001c0: 3312 8fbc 6ddb 68bd 0400 48bd 2bda 5c3d
000001d0: 5fd4 58bb a857 2dbd 1a5f afbc eda6 7f3b
000001e0: df74 b53d 121f 153d f1e5 a7bd 6da2 263d
000001f0: 5263 a83c 16a1 a53d 77a8 98bd efd7 1ebd

cls.weight f4 [2, 128]
-0.027938928 -0.037229747 -0.033601623 0.023219649 -0.022015885 -0.08357205 0.06443542 0.010677707
-0.08217758 -0.011648307 0.0424478 0.052589513 -0.022674885 -0.030467112 0.04519873 0.05823975
0.079339676 0.04588541 0.058885686 -0.069987126 0.048357736 -0.0011557158 0.0009684067 0.011059039
0.07093817 0.04755001 0.053812098 -0.008787469 0.05095749 -0.023788853 -0.018155284 -0.02918195
0.011481627 -0.027526684 0.047790334 -0.059059493 -0.0858936 0.083882056 0.00052524806 -0.04125134
-0.023414267 0.05749493 -0.04190833 -0.044825297 0.033097144 -0.050859395 0.01771472 0.00904768
-0.0040445994 -0.0025130918 0.05487723 0.041820783 0.044580683 0.042989936 0.061180048 0.027449759
0.042863324 0.033918124 -0.047495615 0.0881914 -0.029883813 0.0230427 0.054276593 -0.065907955
-0.065610565 0.07690065 -0.009093283 0.036392268 0.04578283 0.025915256 -0.08630966 0.0046178126
0.08162017 0.087617554 -0.006264891 0.02912724 0.04492345 0.08741495 -0.0033428415 0.012294969
0.033291053 0.022402951 -0.029917471 0.07299592 -0.019765373 -0.046029586 0.06129159 0.05659449
0.06835542 0.045677405 0.033439267 -0.012770797 0.092071585 0.049907885 0.07193384 -0.059676602
0.06909294 -0.029665312 -0.03897879 -0.07111122 0.058828972 0.056044973 -0.056969404 0.05168517
-0.027683059 0.04188243 -0.02958239 0.028259538 0.039399475 0.009804814 -0.07883132 -0.0024173309
-0.018333694 0.015654298 -0.0264618 0.028771298 0.0779626 0.061010305 0.043490436 0.043281704
-0.05324352 -0.05603875 0.009499024 0.08385625 -0.101397105 -0.005938063 -0.021441065 -0.0067312736
0.06729651 -0.040751208 -0.02867346 -0.040143754 0.021271462 0.07273034 -0.06498889 -0.084419936
-0.08970471 0.052297566 -0.03400107 0.071920484 -0.018249916 -0.056010436 0.0038376392 0.05787204
0.035798494 -0.0054040607 -0.06692263 0.032831647 0.0020509432 -0.06692821 -0.08058127 -0.0831053
-0.04345236 -0.032507766 -0.03965713 0.05132044 0.043804195 0.015079762 0.06587436 -0.05482558
0.053285632 -0.06904408 -0.06789262 -0.017978415 -0.008174348 0.072801165 0.033064887 -0.05249972
0.0397427 0.007527858 -0.08017558 0.049389698 0.0271426 -0.043873258 -0.054055933 0.010061915
0.070878625 -0.026387341 0.016476834 0.033392545 0.038559288 -0.06440856 -0.029155787 -0.030031674
-0.018758537 0.046909243 0.07788843 0.036510404 -0.058962483 -0.040638015 -0.047927644 0.05559727
0.060029797 0.014075806 0.03527319 0.08196904 0.06672921 0.003325142 0.0008261176 -0.023131734
-0.026581353 -0.006466081 -0.027917169 -0.08643804 0.069246784 0.050206657 0.026264634 -0.08216129
0.07673395 -0.041690703 -0.06752521 0.066218644 -0.07129616 0.07945586 -0.03479691 0.04465165
0.031118166 0.08207684 0.053730376 0.073615246 0.00658603 0.07384733 0.06247275 0.010046268
-0.006145218 -0.04580856 -0.03741051 0.049866136 0.06321082 -0.051593706 0.012618543 0.00079637446
0.059673067 -0.0384434 0.07517123 -0.07504153 0.010222146 -0.033407383 0.03384401 -0.034669224
-0.03704512 0.052555226 -0.056139123 -0.04389912 0.05689846 0.0468211 -0.021107737 0.055701196
0.09272697 -0.030771159 -0.04532088 0.00568273 -0.009859109 0.078143425 -0.03227001 -0.073859446
00000000: 2ee0 e4bc 387e 18bd dba1 09bd 2237 be3c
00000010: a85a b4bc d327 abbd b8f6 833d 8df1 2e3c
00000020: b84c a8bd 8ad8 3ebc bfdd 2d3d 1a68 573d
00000030: aec0 b9bc 2a96 f9bc 4e22 393d ce8c 6e3d
00000040: d77c a23d 57f2 3b3d 1e32 713d 6955 8fbd
00000050: c312 463d 637b 97ba acdc 7d3a f930 353c
00000060: 0848 913d cdc3 423d 136a 5c3d 51f9 0fbc
00000070: cdb8 503d d7e0 c2bc 64ba 94bc fc0e efbc
00000080: 6f1d 3c3c a47f e1bc ccbf 433d 5ee8 71bd
00000090: fce8 afbd 5bca ab3d cdb0 093a 2af7 28bd
000000a0: 47cf bfbc ce7f 6b3d 12a8 2bbd bb9a 37bd
000000b0: df90 073d f151 50bd 761e 913c b83c 143c
000000c0: 8f88 84bb afb2 24bb f2c6 603d 454c 2b3d
000000d0: 3c9a 363d 3716 303d ee97 7a3d 51de e03c
000000e0: 7491 2f3d bbed 0a3d c38a 42bd b19d b43d
000000f0: e6ce f4bc 0bc4 bc3c 2251 5e3d c0fa 86bd
00000100: d55e 86bd 177e 9d3d fefb 14bc 0f10 153d
00000110: c786 3b3d 3b4c d43c 1ec3 b0bd 0551 973b
00000120: 7a28 a73d d570 b33d b749 cdbb 409c ee3c
00000130: a701 383d 9c06 b33d 9313 5bbb d670 493c
00000140: 335c 083d 6586 b73c 7c15 f5bc e37e 953d
00000150: feea a1bc 8589 3cbd e40c 7b3d a0cf 673d
00000160: edfd 8b3d 3b18 3b3d 9df7 083d 9b3c 51bc
00000170: 0790 bc3d 366c 4c3d 0d52 933d 746f 74bd
00000180: 9980 8d3d ab04 f3bc 39a8 1fbd c2a2 91bd
00000190: a6f6 703d 6a8f 653d c058 69bd d4b3 533d
000001a0: 95c7 e2bc e98c 2b3d c556 f2bc 8c80 e73c
000001b0: 5861 213d 5fa4 203c 5172 a1bd 156c 1ebb
000001c0: 8b30 96bc 713d 803c 6bc6 d8bc c9b1 eb3c
000001d0: dbaa 9f3d f1e5 793d 0723 323d 2848 313d
000001e0: e115 5abd e388 65bd cba1 1b3c d3bc ab3d
000001f0: 49a9 cfbd 1594 c2bb 2ca5 afbc 0492 dcbb
00000200: c1d2 893d bdea 26bd 9be4 eabc c76d 24bd
00000210: 7d41 ae3c a5f3 943d e518 85bd 5ce4 acbd
00000220: 1ab7 b7bd f935 563d b544 0bbd 0c4b 933d
00000230: d980 95bc 336b 65bd e780 7b3b 3b0b 6d3d
00000240: 71a1 123d 8c14 b1bb bb0e 89bd 7a7a 063d
00000250: 1e69 063b a811 89bd cb07 a5bd 1d33 aabd
00000260: 1afb 31bd dd26 05bd 846f 22bd 6235 523d
00000270: 076c 333d 1b11 773c 23e9 863d ca90 60bd
00000280: 0942 5a3d fc66 8dbd 490b 8bbd 7847 93bc
00000290: b3ed 05bc c718 953d 0c6f 073d f209 57bd
000002a0: 3ec9 223d 40ac f63b 1833 a4bd da4c 4a3d
000002b0: 285a de3c 72b4 33bd c169 5dbd bbda 243c
000002c0: d028 913d 442a d8bc 6dfa 863c 9fc6 083d
000002d0: 58f0 1d3d a3e8 83bd 1ed8 eebc fc04 f6bc
000002e0: 81ab 99bc e823 403d f883 9f3d ef8b 153d
000002f0: a582 71bd 0c74 26bd c74f 44bd f7b9 633d
00000300: cee1 753d 369e 663c 9f7a 103d 62df a73d
00000310: 53a9 883d a0ea 593b d08f 583a c37e bdbc
00000320: 23c1 d9bc 6be1 d3bb 8cb2 e4bc 6d06 b1bd
00000330: 42d1 8d3d 7fa5 4d3d ee28 d73c 2e44 a8bd
00000340: b026 9d3d dfc3 2abd a84a 8abd a49d 873d
00000350: b903 92bd c1b9 a23d 3487 0ebd a6e4 363d
00000360: 86eb fe3c e717 a83d 6214 5c3d 97c3 963d
00000370: a0cf d73b 453d 973d 6de3 7f3d 1a99 243c
00000380: d35d c9bb c2a1 3bbd c33b 19bd 6f40 4c3d
00000390: ad74 813d ec53 53bd 01be 4e3c c9c3 503a
000003a0: bf6b 743d d476 1dbd 60f3 993d 60af 99bd
000003b0: ca7a 273c 2ed6 08bd 04a0 0a3d 5101 0ebd
000003c0: a0bc 17bd 2644 573d 23f2 65bd 90cf 33bd
000003d0: 5c0e 693d 7bc7 3f3d 22ea acbc f026 643d
000003e0: a3e7 bd3d cc13 fcbc 63a2 39bd 3236 ba3b
000003f0: 1a88 21bc a909 a03d 8f2d 04bd 9f43 97bd

cls.bias f4 [2]
-0.051669102 0.020684877
00000000: fba2 53bd 5573 a93c
