models/qm_final.pth (torch, 79300 bytes, 10 tensors)

embed.0.weight f4 [128, 11]
000000 35 c4 58 3e 81 41 5e 3e 69 62 ff bd b6 36 90 3e
       0.21168597 0.21704675 -0.12469942 0.2816674
000010 d5 9b be bd 78 ef 6b bb 33 c9 17 be fd 58 47 3e
       -0.09307066 -0.0036000889 -0.14822845 0.1946754
000020 08 25 9d 3e 00 be 4a be d1 33 62 3e 3e 73 9b 3d
       0.30692315 -0.19799042 0.22090079 0.0759034
000030 7f 93 7f 3e 23 c0 a2 3c a1 58 4c 3e 64 f2 34 bd
       0.24958609 0.019867009 0.19955684 -0.044176474
000040 a1 2f 42 3e 17 46 5f 3d 9b 5b cc bd da ae ff 3d
       0.18963481 0.054510202 -0.0997841 0.12484522
000050 ef 43 f7 bd 4b 1b 3c bc 79 a4 d9 bd 24 63 4b 3e
       -0.12073504 -0.0114811165 -0.10627074 0.19862038
000060 46 9e 7f be 1b b2 0e be d2 6d c9 bd 4b 44 4a be
       -0.2496272 -0.1393513 -0.098354 -0.19752614
000070 29 c2 13 3d 3b 90 9d be af 2b 8a 3e f4 6f 63 be
       0.036073837 -0.30774102 0.26986453 -0.22210675
000080 e1 e7 66 3e 45 24 04 3d 00 6d f3 bd 60 57 42 3e
       0.22549392 0.03226115 -0.118860245 0.18978643
000090 ec 94 a4 bb b8 49 75 3e 66 70 40 3d a6 2b fe bd
       -0.0050226357 0.23953903 0.04698219 -0.12410669
0000a0 20 0b 3f 3d d6 b4 f5 bd f1 8a d1 3d 47 14 76 3e
       0.04664147 -0.11997382 0.10231579 0.24031173
0000b0 91 15 41 3e 66 07 27 be 09 21 48 3e d8 a4 8e 3d
       0.18855883 -0.16311416 0.19543852 0.06965035
0000c0 1c 50 15 3e a0 2a 37 be a6 c8 89 be 46 72 d1 bd
       0.1458134 -0.17887354 -0.26910895 -0.10226874
0000d0 01 5b 7e be c1 1a 64 3e d0 91 d2 3d ef 60 ee 3d
       -0.24839403 0.22275831 0.10281718 0.11639582
0000e0 99 c5 bc 3d 5c ac 5a bc 16 55 6e 3e 65 8b 44 be
       0.09217376 -0.013346758 0.23274645 -0.191938
0000f0 a3 5b 8f 3c 38 3a 51 be 39 9a a3 3d 90 cb fa bd
       0.01749975 -0.20432365 0.079884 -0.12245858
000100 5c dc b7 3d 50 9e a4 bd f6 7c 91 3e 18 f1 56 be
       0.08977577 -0.08038008 0.2841565 -0.20990407
000110 a8 ea 52 be 83 17 64 be b4 5b 8e 3e 80 a3 61 3d
       -0.20597327 -0.22274594 0.2780434 0.055087566
000120 9f b7 7a 3e 53 48 83 be f3 75 a6 be 12 89 60 be
       0.24484108 -0.25641116 -0.32511863 -0.21927288
000130 4c b5 6b be e5 38 ee 3d 8b c3 de 3d a9 a9 78 3e
       -0.23018378 0.116319455 0.108771406 0.2428347
000140 55 20 18 be 0a b9 45 be 6f 83 21 3e cc 71 0b be
       -0.14856084 -0.19308868 0.15772794 -0.13617629
000150 fa 03 30 3e 33 a9 b5 bd a3 03 15 3e d8 24 82 be
       0.17189017 -0.08870163 0.14552169 -0.25418735
000160 e4 c7 24 be 44 6c 93 3d 42 80 8c 3d e6 e6 cf bd
       -0.16091877 0.071983844 0.06860401 -0.10151462
000170 d1 d3 1f 3e 54 f2 58 3e cd b3 5f be 16 b9 45 be
       0.15608145 0.21186191 -0.21845932 -0.19308886
000180 5a ca 7c 3e f3 88 fd bd 47 55 e8 bd 93 0c 83 be
       0.24686566 -0.123796366 -0.1134439 -0.2559553
000190 3e cd 38 be 6a 70 4f 3d 9e 10 9d bd e2 90 61 be
       -0.18047044 0.050644316 -0.07669185 -0.22027925
0001a0 f7 6d ff bc 50 a1 3f be 66 b6 81 be 0a 11 3b be
       -0.031180365 -0.1871388 -0.2533447 -0.18268219
0001b0 86 68 7c be 5c d6 4a be 77 59 99 3e 6f 5f 59 3d
       -0.24649248 -0.19808334 0.2995107 0.05306953
0001c0 c0 24 b5 3d 41 82 76 be d0 68 20 be c0 ce 06 be
       0.088449 -0.24073125 -0.15664983 -0.13164806
0001d0 ed e9 37 3d 81 39 94 be a2 13 f5 bd f9 41 19 be
       0.044900823 -0.28950122 -0.11966635 -0.14966573
0001e0 c4 c7 90 3a 9f 39 ab bd e8 fa 60 bc f8 1d 5d be
       0.0011045863 -0.083606 -0.013731696 -0.21593463
0001f0 35 ae 29 be 9d 06 28 be 8b 59 b3 bd 08 58 72 be
       -0.16570361 -0.16408773 -0.08757313 -0.23666394
000200 83 e5 84 3e fa 88 83 bd b4 41 88 3e 35 8a cf 3d
       0.25956354 -0.064226106 0.26612628 0.10133783
000210 7b 0e 69 be ee 9f 4e 3e cb 63 be bd 4b fc 05 be
       -0.2275943 0.20178196 -0.09296378 -0.13084523
000220 b9 a3 89 be b7 42 a6 be 92 8b 84 3d 28 44 a6 bd
       -0.26882723 -0.32472774 0.064719334 -0.081184685
000230 9b 26 f4 3d 26 9f 60 be 95 00 63 3e b3 89 66 be
       0.11921426 -0.2193571 0.22168191 -0.22513466
000240 e3 5c 7c bd bf 65 55 3d 43 3f 1d 3e d6 69 74 3e
       -0.06161202 0.052098986 0.15356164 0.23868498
000250 0b da 85 3e 2c 61 7c be 4b a2 93 3d 28 d0 08 be
       0.26142916 -0.24646443 0.07208689 -0.13360655
000260 38 4f af bc 65 2f 6f be 9e 08 83 3e 52 0a 6d be
       -0.02140008 -0.23357923 0.25592512 -0.23148468
000270 e8 1a 26 3e 89 a2 b8 3d e8 d8 bb 3d e4 4f 23 be
       0.16221201 0.09015376 0.09172231 -0.15948445
000280 9d 3b 94 3e 4b da 3c 3d da 48 b8 3c 6d 25 90 be
       0.2895173 0.046106618 0.022495676 -0.28153554
000290 a4 b3 f2 3d 7d dc d7 bc 68 7d fd bd 76 c2 8b 3e
       0.1185067 -0.026350254 -0.12377435 0.272968
0002a0 5e 6e a1 3d f3 17 0e be 23 10 0d be 61 25 ad bc
       0.07882379 -0.13876323 -0.13775687 -0.021135988
0002b0 12 66 34 3e 96 96 8d bd 5a cb 43 be ef f4 c8 bd
       0.17617062 -0.069134876 -0.19120541 -0.098123424
0002c0 da 65 70 be aa 50 e9 3d 08 8d 59 3e 51 98 91 be
       -0.23476353 0.113923386 0.21245205 -0.2843652
0002d0 d2 a6 9c 3d 75 12 02 3e 8e e0 aa 3b 10 fe c2 bd
       0.07649006 0.12702353 0.0052147573 -0.09521115
0002e0 df 45 3a 3e 6a 75 36 3e 99 41 cb 3d b2 c8 c5 bd
       0.18190716 0.17818227 0.09924621 -0.0965742
0002f0 e0 c4 94 bd cb 96 18 3c 8c d0 a4 bd 26 ff ba bd
       -0.072641134 0.009313296 -0.0804759 -0.09130697
000300 6f 4e 41 3e 59 2f 5a 3e 75 c8 89 bd 02 f3 8e bd
       0.18877576 0.21307124 -0.06727687 -0.06979944
000310 2d 3b 83 ba f5 b4 38 bd 32 6e d2 3d 89 11 5e 3d
       -0.0010012143 -0.04509445 0.10274924 0.05421594
000320 c8 80 97 be cf d0 1f be 8c f5 70 3e 00 7e 8b 3d
       -0.2959044 -0.15606998 0.23531169 0.06811142
000330 a7 1b b0 bc d8 9f 39 be 02 3d 5c be e0 0a 67 be
       -0.02149756 -0.18127382 -0.21507648 -0.22562742
000340 cd 94 07 be 88 e4 b6 3d 84 fa 45 3e fd 77 1b 3e
       -0.13240357 0.089303076 0.19333845 0.1518249
000350 28 67 83 be 57 8f 2f be cd ea 0a bd 63 95 9b 3e
       -0.2566464 -0.17144524 -0.03391533 0.3038741
000360 ab 2b 33 3d 90 b0 be bd 63 f4 da 3d ed a3 ea bd
       0.043742817 -0.093110204 0.10691144 -0.114570476
000370 f8 e1 46 be bc eb 70 3e 3c 8d f6 bd 3b 8b 3f bc
       -0.19422138 0.23527426 -0.12038657 -0.01169091
000380 59 7d 7d be 6c 9b 6b 3e 26 71 73 3e 18 63 e6 3d
       -0.24754848 0.23008507 0.23773631 0.112493694
000390 f0 a2 56 be c4 c4 94 be 13 23 77 be cf ba 5e 3e
       -0.20960593 -0.2905637 -0.24134474 0.2175095
0003a0 c7 95 2a 3e 2f ec 86 3e f0 1b 21 3e 69 79 98 3d
       0.16658698 0.2635207 0.15733314 0.07445032
0003b0 68 e1 34 3c 50 51 5d be 53 e0 80 be 43 ac 8c be
       0.011040069 -0.2161305 -0.25171146 -0.27475175
0003c0 3e 64 0e 3e b3 b2 1b be 9c e4 58 bd 3a 81 4e be
       0.13905427 -0.15204887 -0.052952394 -0.20166484
0003d0 c3 a0 9a bd 4f 1e 88 be 01 8d 59 be f2 79 4b 3d
       -0.07550194 -0.26585624 -0.21245195 0.049676843
0003e0 2d e9 a6 bd 3b 96 29 3e ce 7b 01 be 43 65 3b be
       -0.081499435 0.16561215 -0.12644884 -0.18300347
0003f0 75 93 b0 bd 6a 93 01 be d3 eb 12 be bc 4d 91 be
       -0.08621875 -0.1265389 -0.14347772 -0.2837962

embed.0.bias f4 [128]
000000 3a 56 b3 bd 31 9c f6 37 b9 ea c2 b9 e7 35 6e 3c
       -0.08756681 2.9398218e-05 -0.00037177445 0.0145392185
000010 48 2a 30 38 73 16 94 bd 3b 33 ee bc 23 b8 e3 36
       4.2001047e-05 -0.07230844 -0.029077163 6.7865635e-06
000020 7c 7d de bd 92 c6 4d 37 06 d3 f7 38 38 46 27 3d
       -0.10863778 1.2265185e-05 0.00011817184 0.04083845
000030 8b ec 90 3b 6b e4 14 3e 76 0a cd 35 b5 02 12 be
       0.0044227294 0.1454026 1.5276735e-06 -0.14258845
000040 b8 d6 6a 3d 28 ca fd bd 5e 21 da b9 c7 c3 c2 bc
       0.057333678 -0.12392074 -0.0004160506 -0.023774995
000050 a3 b4 1d bd bc 2f 13 bd 0d e4 48 3e 49 8d bf 3d
       -0.038502347 -0.035934195 0.19618244 0.0935312
000060 0d 21 4d 3c df 04 4f 3e 55 02 45 be 56 01 17 ba
       0.012520087 0.20216702 -0.19239171 -0.0005760392
000070 67 3f e8 3d 84 ce f6 3d e9 54 23 be 37 b0 03 3d
       0.11340218 0.120511085 -0.1595036 0.032150473
000080 ff e4 bd bd a0 2d 6e 37 8c 0f 0c ba 41 40 2f be
       -0.09272193 1.4196528e-05 -0.0005342893 -0.17114355
000090 28 98 53 be d3 f1 f2 bd 8f b2 72 3d 9d f7 76 3d
       -0.20663512 -0.118625306 0.059252318 0.060294736
0000a0 04 df 39 be 14 5c 19 bd a1 b5 db 35 cb 49 38 be
       -0.1815148 -0.03744133 1.6369632e-06 -0.179969
0000b0 b5 2a ba 3d 0a dc 44 3e 6f 42 87 ba 09 43 13 be
       0.09090177 0.19224563 -0.0010319481 -0.1438104
0000c0 ff 7b 7b 3b e6 7e 0b 3d 56 1c 22 3e 48 75 a7 bd
       0.0038373468 0.034056567 0.15831122 -0.081766665
0000d0 6d db 41 be fc f5 61 3d 3b 81 81 b7 a9 fb c6 bc
       -0.1893136 0.05516623 -1.5438176e-05 -0.024289923
0000e0 42 8a 4a bd 16 b0 9d bd e5 7c 27 3e b2 de 7d 3a
       -0.04944826 -0.07699601 0.16356237 0.0009684368
0000f0 c0 a3 0c 3e a5 dc 40 3e 5c a4 77 39 57 42 85 3a
       0.1373434 0.18834169 0.00023616984 0.0010166866
000100 2e 00 89 37 83 37 02 3e 82 70 43 be ee 36 32 3d
       1.6331756e-05 0.12716489 -0.19085887 0.043509416
000110 68 5b 29 3a 85 fd 75 3d a7 de 60 36 b7 7f 13 bd
       0.0006460459 0.06005623 3.3508202e-06 -0.03601047
000120 8e b7 33 39 01 2c ac 3d 72 8d 04 be b0 60 e3 bd
       0.0001713915 0.084068306 -0.12944582 -0.11102426
000130 c1 df 1f bb 1c 2e 0b bd 83 bf 2c 3d d5 0d fc 3d
       -0.0024394842 -0.03397952 0.042174827 0.12307326
000140 4c 04 10 39 d7 0a 51 3e a5 28 49 bd c7 cb b8 bd
       0.00013734511 0.20414291 -0.049111027 -0.090232424
000150 f1 a1 6b bd 18 df 02 be 3c 7e 06 be 92 5c 40 be
       -0.057527486 -0.12780416 -0.13134092 -0.18785313
000160 3a ea 3e be 8b ed 13 3c c1 fc d5 3d 05 fc 4e 3e
       -0.18644038 0.009028803 0.104485996 0.20213325
000170 22 63 34 3e ae 31 ac b7 30 6b 21 ba 18 0e cf bd
       0.17615941 -2.0527132e-05 -0.0006157635 -0.1011011
000180 44 a3 25 3d 0b 1a 55 be 05 ce 83 3d eb 60 82 ba
       0.040438905 -0.20810716 0.064357795 -0.0009947097
000190 33 f1 a0 3c 2f f0 0e 3d d5 e9 78 bd f3 4f 36 3e
       0.019646263 0.034897026 -0.060769875 0.17803936
0001a0 5a 12 87 3d aa 56 f2 3d bc 63 cc 39 27 e6 e0 3d
       0.06595297 0.11832936 0.0003898422 0.10981398
0001b0 01 14 fc 3d ee 12 72 3d a2 f5 18 3e 47 13 86 3a
       0.12308503 0.059100084 0.14937451 0.0010229134
0001c0 d7 b9 f2 3d 39 95 5e 3b 4a 15 d1 3d bf bd 59 3e
       0.118518524 0.0033963455 0.10209139 0.21263789
0001d0 b8 0a 37 3b 21 80 14 bd 68 72 b6 b8 2b 69 5d 3c
       0.0027929973 -0.036255006 -8.699746e-05 0.0135138435
0001e0 82 e6 61 ba 9a b0 3e bc ac 93 1f 3e 98 8c d0 3d
       -0.0008617417 -0.011638785 0.15583676 0.10183066
0001f0 f0 c8 dc bd 38 13 62 b7 cd 50 9d b8 6e 25 e0 bd
       -0.10780513 -1.3475124e-05 -7.501394e-05 -0.10944639

embed.1.weight f4 [128]
000000 c8 e6 7f 3f 7b f9 7e 3f f9 c7 7d 3f f7 a4 7d 3f
       0.9996152 0.99599427 0.9913326 0.9907984
000010 bf 4d 80 3f ed e3 7e 3f 32 30 7d 3f 5c de 7f 3f
       1.0023726 0.9956654 0.98901665 0.9994867
000020 9b 82 7f 3f fd 6e 78 3f 6d e5 81 3f aa 8d 7d 3f
       0.99808663 0.97044355 1.014814 0.9904429
000030 58 c3 7f 3f 48 f1 7b 3f ff 86 7d 3f aa ee 7b 3f
       0.99907446 0.9841504 0.9903411 0.9841105
000040 c2 60 7e 3f c7 84 7b 3f 64 44 7f 3f d7 b3 7e 3f
       0.9936639 0.9824948 0.9971373 0.99493164
000050 2b 2a 80 3f 4c 20 7e 3f 70 b3 7f 3f 5e ab 7e 3f
       1.0012869 0.9926803 0.99883175 0.99480236
000060 e1 0f 7e 3f 4b 21 80 3f a9 3b 7d 3f e8 ea 7b 3f
       0.9924298 1.001016 0.9891916 0.98405313
000070 40 52 7d 3f 97 de 7f 3f 21 d8 81 3f 8d 39 7c 3f
       0.9895363 0.9994902 1.0144082 0.98525316
000080 fa 8a 7a 3f 00 9c 7f 3f 1f 78 7e 3f 43 e2 7c 3f
       0.9786831 0.9984741 0.9940204 0.9878275
000090 af a3 7d 3f 59 9d 7d 3f 53 d1 7c 3f 0e 14 76 3f
       0.99077886 0.9906822 0.98756903 0.9612435
0000a0 b6 a8 7d 3f c3 f5 74 3f 85 ab 7c 3f 46 88 80 3f
       0.9908556 0.956875 0.9869922 1.0041587
0000b0 b4 99 7a 3f a5 0e 7d 3f 25 10 7b 3f 3b 67 7f 3f
       0.9789078 0.9885047 0.9807151 0.9976689
0000c0 f3 72 80 3f 64 06 78 3f 19 aa 80 3f 45 1c 7f 3f
       1.003508 0.9688475 1.005191 0.9965251
0000d0 3c 5f 80 3f f5 7a 7f 3f 35 1e 80 3f 20 0d 7c 3f
       1.0029063 0.9979699 1.0009218 0.9845753
0000e0 2b b0 76 3f 88 84 7e 3f 67 68 7c 3f 0c a5 7c 3f
       0.9636256 0.99420977 0.98596805 0.9868934
0000f0 8f f5 79 3f 19 08 7e 3f 2b 44 7f 3f 84 68 7d 3f
       0.9764032 0.99231106 0.9971339 0.98987603
000100 2c 5c 79 3f 87 e1 7d 3f ae 43 7e 3f 80 20 80 3f
       0.9740627 0.9917225 0.9932202 1.0009918
000110 3a 10 7b 3f 86 ea 7e 3f d2 2e 7b 3f 5d 2d 7e 3f
       0.98071635 0.99576604 0.9811832 0.9928797
000120 1d 40 7e 3f 62 3b 7e 3f fe a4 7d 3f a1 05 80 3f
       0.9931658 0.9930936 0.99079883 1.0001718
000130 71 55 7d 3f fa d4 7c 3f 49 20 7c 3f f3 aa 7e 3f
       0.989585 0.98762476 0.98486763 0.994796
000140 cb 05 7f 3f 52 c1 7f 3f 65 84 7e 3f 25 78 7e 3f
       0.99618214 0.9990436 0.9942077 0.99402076
000150 73 ad 74 3f 9b 31 80 3f e4 65 7f 3f 50 6f 80 3f
       0.9557716 1.0015138 0.9976485 1.003397
000160 83 30 7e 3f 07 ad 81 3f 15 41 7b 3f 42 28 7f 3f
       0.99292773 1.0130929 0.9814618 0.99670804
000170 b5 c1 7d 3f e3 c6 7d 3f 8a 96 7d 3f 46 39 81 3f
       0.991237 0.991316 0.9905783 1.0095603
000180 bd db 7c 3f 27 45 7f 3f 95 85 7d 3f 86 fa 7d 3f
       0.98772794 0.99714893 0.99031955 0.99210393
000190 5e 20 7e 3f 5c 14 7b 3f 0e 14 81 3f 93 7e 78 3f
       0.9926814 0.9807794 1.0084245 0.97068137
0001a0 39 f9 74 3f b2 8c 7b 3f 53 8e 80 3f 8e 6f 7e 3f
       0.95692784 0.9826156 1.0043434 0.9938897
0001b0 24 81 7d 3f 14 21 7c 3f 0e 05 7f 3f 36 8a 7c 3f
       0.9902518 0.98487973 0.9961709 0.98648393
0001c0 67 33 7e 3f f7 f9 80 3f eb 52 7d 3f 0d dd 77 3f
       0.99297184 1.0076283 0.9895465 0.9682167
0001d0 eb aa 7e 3f 9a 07 7d 3f b1 23 80 3f 6f f7 7e 3f
       0.9947955 0.98839724 1.0010892 0.99596304
0001e0 5a ed 7c 3f b8 b0 7b 3f 70 b6 7a 3f b9 ee 7f 3f
       0.9879967 0.98316526 0.9793463 0.99973637
0001f0 0d 5e 7b 3f 58 8d 7d 3f e9 fb 7d 3f c9 80 80 3f
       0.98190385 0.990438 0.9921251 1.0039302

embed.1.bias f4 [128]
000000 fa 28 a8 bc 38 5d 7d bc 8e 48 91 bb bb 75 91 3b
       -0.020527352 -0.01546412 -0.004433698 0.0044390834
000010 96 ba 4a bc c0 38 cf bc ef b7 83 3c 40 96 2e 3b
       -0.012373587 -0.025295615 0.016078917 0.002663985
000020 4f c1 87 3b 9a 8d e4 39 36 18 10 3b 34 10 55 bc
       0.004142917 0.0004359305 0.0021987087 -0.013004351
000030 3a 35 5a 3c 32 3f f6 ba 31 e8 b3 bb 98 8c 97 bc
       0.013318354 -0.0018787144 -0.005490326 -0.018499658
000040 0b ee 8c bc 7f 74 36 3c f8 0b 2d 3c 74 ea f0 bb
       -0.017203351 0.011136173 0.010561936 -0.0073521677
000050 30 6a ad bb b6 bd 1a 3a a7 f6 5e 3c 0f 79 c1 3c
       -0.0052921996 0.0005902903 0.013608611 0.023617296
000060 1b 4b d3 3b 77 17 85 3c c1 0b ce 3b 21 89 3b 3c
       0.0064481623 0.01624654 0.0062880223 0.011446268
000070 ba a8 b6 3a 6f 16 9d 3c 34 27 00 bb 5d c3 ce 3b
       0.0013935782 0.019175736 -0.0019554617 0.00630991
000080 2a 3e a2 bc bc bd e9 bc ff 4a a1 3c 2a 4f a0 bc
       -0.019805033 -0.028532855 0.019689081 -0.019568998
000090 24 19 1c 3c 0f ac 7a 3b c1 6a aa 3c 75 fa 78 bc
       0.009527478 0.0038249528 0.020802857 -0.015196432
0000a0 39 f3 0f bd de 3f 00 bd 34 de f3 bb 7f 41 f0 3b
       -0.035144065 -0.03131091 -0.00744226 0.0073320265
0000b0 c2 84 c1 bc 28 46 27 3c 3d 1a 1f bb 55 38 21 3b
       -0.023622874 0.010209598 -0.0024277114 0.0024600227
0000c0 ac 74 e8 3c c0 27 44 bc da 77 ac bc 00 e4 37 bb
       0.028375946 -0.011972368 -0.021053243 -0.0028059483
0000d0 08 b2 81 ba 33 2d 96 bc 50 6d 42 3c 80 e8 af bb
       -0.0009894976 -0.0183321 0.011866882 -0.0053682923
0000e0 94 6c 38 3c 4f 26 7c 3c 71 22 43 3c 2e a2 3b bc
       0.011256356 0.015389993 0.011910067 -0.011452241
0000f0 31 4c 48 3b 72 61 a2 bc e0 2e 7e bc f5 17 74 ba
       0.0030562992 -0.019821856 -0.015514106 -0.0009311431
000100 46 41 02 bd 3b f6 b4 bc 02 21 bb 3c 67 3e 53 3a
       -0.03180053 -0.022090068 0.022842888 0.000805831
000110 12 9f 7d bb b2 ee e0 3c 72 5a a0 3b 74 41 a8 bc
       -0.003869955 0.027457569 0.0048935944 -0.020539023
000120 48 d5 9c 3c b3 10 2d bc dd f2 2e 3c 89 ab 36 bb
       0.01914467 -0.010563063 0.01067802 -0.002787324
000130 34 7c 52 3b 98 13 ba ba 8e be f4 3b 14 be 22 bd
       0.0032117488 -0.0014196513 0.007469005 -0.039732054
000140 84 58 38 3a d6 03 f0 bc 22 c4 f1 bc 35 44 27 bc
       0.0007032233 -0.029298704 -0.029512469 -0.010209133
000150 7c a1 03 bd a9 90 4d 3c 5e 06 c2 3c 9a 92 65 3c
       -0.032136425 0.012546697 0.023684677 0.014012003
000160 52 e5 f1 b9 5c 53 b3 3c db 7f 4f bc 18 b7 5e bb
       -0.0004613796 0.021890335 -0.01266476 -0.0033983644
000170 df e6 85 39 c6 ce b7 3c 43 a4 03 bb 7b f2 61 3d
       0.0002553975 0.022437464 -0.0020086921 0.055162888
000180 0b 14 80 bc de 71 88 bc e9 d3 37 3b d0 cf 58 bc
       -0.015634557 -0.016655859 0.0028049892 -0.01323314
000190 78 ed 73 3c 2b dc 89 bc f8 c5 bb bb 17 05 03 3c
       0.01488816 -0.016828617 -0.005730387 0.007996819
0001a0 59 30 d4 bb be 7a cb bc 5a a6 ad bc e0 88 06 bc
       -0.00647549 -0.024838801 -0.021197487 -0.0082113445
0001b0 c2 ba 13 3c 89 98 33 bc 62 e5 a3 bc ea cd 86 bc
       0.0090166945 -0.01096166 -0.02000684 -0.01645561
0001c0 b2 ec 76 bc 7a 5a e1 3b c3 55 cb bc 1b 0f 86 bc
       -0.015071081 0.0068772407 -0.024821168 -0.016364625
0001d0 1a 10 e6 bc d5 ad 16 3b 75 61 b8 bc 50 3e e0 3b
       -0.02808385 0.0022991796 -0.022507409 0.0068433657
0001e0 05 ef ef 3a 2f 90 c6 bc 4b 4c 4f bc 32 7c a4 bc
       0.0018305486 -0.024238674 -0.012652467 -0.020078752
0001f0 46 b1 00 bc 20 7c bc bc 6d 4e 99 3c 4c 01 97 3a
       -0.007854765 -0.023008406 0.018714154 0.0011520772

embed.1.running_mean f4 [128]
000000 e8 f4 b9 bd 74 39 ce 37 f2 36 14 b9 ef 01 89 3c
       -0.09079915 2.4583867e-05 -0.00014134849 0.016724555
000010 6d e3 05 38 5b 88 9a bd c7 e6 01 bd ca a4 d6 35
       3.1921478e-05 -0.07545539 -0.031714227 1.5992202e-06
000020 36 49 e5 bd 56 c1 17 37 bb 6e 88 38 74 ed 32 3d
       -0.111956045 9.045316e-06 6.5056105e-05 0.043683484
000030 e2 97 c1 3b 74 64 18 3e 6e 26 7d 36 20 81 15 be
       0.0059079984 0.1488207 3.7722307e-06 -0.14600039
000040 4b 42 77 3d 5a 57 02 be 1b 0c 86 b9 a0 4f d7 bc
       0.060365956 -0.12728634 -0.0002556749 -0.026283085
000050 8d 38 29 bd 86 86 1e bd 08 7a 4c 3e 4a 3a c6 3d
       -0.041313697 -0.03870251 0.19968426 0.096790865
000060 78 56 6f 3c c4 9c 52 3e 01 97 48 be 26 ca 68 ba
       0.014608018 0.20567614 -0.19588853 -0.000888022
000070 8a 13 ef 3d 00 ae fd 3d 49 dc 26 be e4 bf 0e 3d
       0.11673649 0.123867035 -0.1629497 0.03485097
000080 3c 90 c4 bd e2 e9 cb b5 93 51 b7 ba d7 cc 32 be
       -0.09597823 -1.5192747e-06 -0.0013986103 -0.17460953
000090 82 31 57 be 6b ce f9 bd 08 30 7f 3d 30 bf 81 3d
       -0.2101498 -0.12197574 0.062301666 0.06335294
0000a0 c4 6f 3d be 13 cd 24 bd 58 a8 6f 36 0c da 3b be
       -0.18499666 -0.040234637 3.5711764e-06 -0.18344897
0000b0 9b d1 c0 3d b2 70 48 3e 7a 35 87 ba 23 c2 16 be
       0.09414979 0.1957424 -0.001031562 -0.14722495
0000c0 a3 4b ac 3b b7 b3 16 3d 17 a3 25 3e 90 04 ae bd
       0.00525804 0.036792483 0.16175495 -0.08496964
0000d0 12 6f 45 be 79 4c 6e 3d fe 4b 27 38 2b a5 db bc
       -0.19280651 0.0581784 3.9886676e-05 -0.026812157
0000e0 fa a2 56 bd 36 31 a4 bd 20 06 2b 3e a0 a8 8c 3a
       -0.05240152 -0.08017199 0.16701555 0.0010731407
0000f0 0e 1f 10 3e ef 6f 44 3e b2 f2 b4 39 2e 37 02 3b
       0.14074346 0.19183324 0.00034513097 0.0019869315
000100 54 d3 f4 34 24 ac 05 3e b6 04 47 be 8e 04 3e 3d
       4.5602303e-07 0.13053948 -0.19435391 0.046391062
000110 95 64 74 3a fa 41 81 3d 8d 6a 92 34 20 d8 1e bd
       0.0009322849 0.06311412 2.7272145e-07 -0.03878033
000120 fe f1 2a 39 93 c1 b2 3d a6 03 08 be ac 30 ea bd
       0.00016302612 0.087283276 -0.13282642 -0.11435065
000130 7e 3c 70 bb 93 61 16 bd 0c 7a 38 3d 9b 78 01 3e
       -0.003665715 -0.036714148 0.045038268 0.12643664
000140 29 a9 26 39 6c a3 54 3e 6c 3d 55 bd 14 71 bf bd
       0.0001589401 0.20765465 -0.05206053 -0.0934774
000150 4c 0f 78 bd 35 54 06 be b5 f5 09 be b1 ef 43 be
       -0.060561463 -0.1311806 -0.13472636 -0.19134404
000160 d0 7c 42 be c9 d0 32 3c c5 c0 dc 3d f0 93 52 3e
       -0.18992925 0.010914036 0.10778955 0.20564246
000170 c0 f1 37 3e b4 89 c9 35 1c 46 1b b9 88 cb d5 bd
       0.17963314 1.5015744e-06 -0.0001480807 -0.10439211
000180 dc 43 31 3d d4 b3 58 be 6f 22 8a 3d 21 a8 57 ba
       0.043277606 -0.21162349 0.06744849 -0.0008226652
000190 5c 73 b4 3c be 34 1a 3d 44 ba 82 bd 5a df 39 3e
       0.022027664 0.037647955 -0.063831836 0.18151608
0001a0 2e 6d 8d 3d cd 32 f9 3d 43 69 c0 39 2a b4 e7 3d
       0.0690559 0.121678926 0.0003669952 0.113136604
0001b0 aa 7b 01 3e 00 8f 7e 3d d9 77 1c 3e b1 51 6d 3a
       0.1264483 0.062148094 0.15280093 0.00090530055
0001c0 48 96 f9 3d 4b f0 9b 3b a7 d4 d7 3d df 58 5d 3e
       0.12186867 0.0047588698 0.10538607 0.21615933
0001d0 7a 6d 85 3b d6 dc 1f bd a4 21 28 36 fc 36 80 3c
       0.0040718885 -0.039028965 2.5053532e-06 0.015651219
0001e0 ee d3 89 ba 9e 21 60 bc 38 19 23 3e 5f 4b d7 3d
       -0.001051543 -0.01367989 0.15927589 0.10512423
0001f0 3a 93 e3 bd e2 01 61 36 5d a7 7a b8 88 f2 e6 bd
       -0.111120656 3.3528709e-06 -5.9760514e-05 -0.11276728

embed.1.running_var f4 [128]
000000 ea c7 99 3f fb 13 f2 3e 38 cf 58 3e 1a 64 66 3e
       1.2014134 0.4728087 0.21172798 0.22499123
000010 2c f1 31 3e 56 4c be 3d cf ef 62 3f c0 84 30 3e
       0.17377156 0.09291904 0.8864717 0.1723814
000020 34 67 f2 3d df d4 d4 3f 55 cf 94 3e ff 07 a7 3e
       0.11836091 1.6627463 0.29064432 0.32623288
000030 ca 20 92 3e 75 38 11 3e 96 a2 a1 3e 38 a0 a5 3d
       0.2854064 0.14181693 0.31569356 0.080872
000040 46 a3 2b 3e f0 6e ad 3d 20 f0 ec 3e 59 86 46 3e
       0.16761503 0.08468425 0.4627695 0.19387187
000050 d2 32 7a 3e b0 60 d3 3d 5b d5 16 3f 96 68 c5 3e
       0.24433449 0.10321176 0.58919305 0.38556355
000060 9b 83 ce 3d e2 3a 76 3f 50 a6 90 3e 46 9f c6 3e
       0.100836955 0.961836 0.28251886 0.3879339
000070 56 4c f6 3e d8 9e ad 3f 8a 18 83 3e 25 f0 d0 3e
       0.48105115 1.35641 0.2560466 0.40808216
000080 be d0 09 3e 47 14 e4 3d b8 a3 c8 3e b2 17 a9 3d
       0.13458535 0.1113668 0.39187407 0.08256473
000090 83 a3 07 3f df 63 c9 3d 2d 5d 45 3f cd 35 e4 3d
       0.52983874 0.09833502 0.770953 0.11143074
0000a0 93 d5 2d 3f 54 1b 84 3e 88 d5 a0 3e e7 7d 58 3e
       0.67904013 0.258021 0.3141291 0.21141778
0000b0 ed 28 97 3e 55 8e 9c 3e e0 a4 56 3f 25 49 d9 3d
       0.2952341 0.3057734 0.8384533 0.10609654
0000c0 0c 75 6e 3d d2 3b 9c 3e 5d 17 4e 3e 10 07 e4 3f
       0.058217093 0.3051439 0.201261 1.7814655
0000d0 75 a4 27 3e 9d 05 00 3f 54 d6 3f 3f 45 bd 75 3e
       0.16371329 0.50008565 0.74936414 0.23997982
0000e0 d8 92 11 3f f3 b1 6d 3f c2 5a 7a 3e cd 69 18 3e
       0.5686469 0.92849654 0.24448684 0.1488411
0000f0 27 05 0e 3e 0b 03 12 3e fd 2f 94 3e be 4f d1 3e
       0.13869153 0.14258973 0.28942862 0.4088115
000100 c9 bf a9 3e 1c d9 43 3e 5a 0d 84 3f fa dd 16 3e
       0.33154133 0.1912579 1.0316575 0.14733115
000110 78 ae 3e 3e bb a1 8c 3e 9e 37 03 3e 28 a5 6f 3e
       0.18621242 0.2746714 0.12814185 0.23402846
000120 cc ac 32 3f 0a 30 cd 3d 98 4c 93 3e 1a 11 91 3d
       0.6979492 0.10018928 0.28769374 0.0708334
000130 d3 11 91 3f 67 c9 de 3d b3 f3 63 3f 3c 6b 94 3d
       1.1333565 0.10878258 0.8904373 0.07247016
000140 c8 23 49 3e d8 d3 f8 3d 4d 86 2d 3e 44 25 7b 3d
       0.19642556 0.12149781 0.16945763 0.061314836
000150 eb 27 21 3e 08 9b 4e 3f ca ff 73 3f 48 21 50 3d
       0.15737884 0.8070531 0.9531218 0.05081299
000160 d7 18 51 3e 14 31 e9 3d 20 6b 0f 3e 43 56 63 3f
       0.20419632 0.11386314 0.14005709 0.888035
000170 50 ec 15 3e ec d9 b7 3d c1 36 1b 3e e7 b1 d0 3d
       0.14640927 0.08977112 0.15157606 0.10190182
000180 53 f3 b2 3e 6a 8e 7c 3f 69 a1 9e 3e 30 93 b6 3e
       0.34951267 0.98654807 0.3098252 0.3565917
000190 2b b8 7e 3d b8 67 11 3e f9 9a 13 3e 23 93 0d 3f
       0.062187355 0.14199722 0.14414586 0.5530264
0001a0 15 de 86 3e fc 4c cb 3f 27 60 c2 3d 1e 68 b8 3d
       0.2634131 1.5882869 0.09490996 0.09004234
0001b0 94 af aa 3e 02 53 20 3e 6c c1 25 3f a4 6a 49 3e
       0.3333708 0.15656665 0.64748263 0.19669586
0001c0 4c 89 c1 3e d5 49 dc 3e cd 66 4b 3e 63 03 5e 3e
       0.37800062 0.4302508 0.19863434 0.2168098
0001d0 cc a9 c9 3d a6 3d 13 3f 2b fb 9d 3e 7a a8 39 3e
       0.09846839 0.57515943 0.30855688 0.18130675
0001e0 1d d1 30 3f c1 e1 13 3f c3 22 e7 3d d6 e4 03 3e
       0.6906908 0.5776635 0.11285927 0.12880263
0001f0 a8 65 22 3e 33 87 8b 3f d9 f2 c1 3e da 27 7f 3f
       0.15859091 1.0900635 0.3788059 0.99670184

embed.4.weight f4 [128, 128]
000000 09 88 87 3c 01 a6 f0 bc a7 77 02 bd a3 3d c9 bc
       0.016544359 -0.029376032 -0.03185239 -0.024565523
000010 71 09 a9 bc 8e 4d a1 3d b7 f3 38 3d a6 05 a8 3d
       -0.020634385 0.078761205 0.0451543 0.08204202
000020 61 36 92 3c cb 10 fe 3c b1 83 64 3d 6d 45 94 3c
       0.017848196 0.031013867 0.055789653 0.018099511
000030 5e 00 82 bd 8d 4a 7d bd b3 20 8c bc 91 19 31 3c
       -0.06347726 -0.061838675 -0.017105436 0.010809318
000040 bd ce 02 3d 78 11 bf 3c cb 15 9c 3d 34 eb 9c 3c
       0.031935442 0.02332376 0.07621344 0.019155122
000050 be ca 12 bd 9e 91 99 bd b4 a9 6b bd f5 58 45 bd
       -0.03583788 -0.074984774 -0.05753489 -0.04818054
000060 79 d5 19 3d 81 ed 5d 3d d7 92 94 3d be 18 8d bc
       0.0375571 0.05418158 0.0725457 -0.017223712
000070 40 16 38 bb 55 6c 97 bc 92 c2 98 3c 06 62 25 3d
       -0.0028089434 -0.018484274 0.018647466 0.040376686
000080 0e 6d 7c bb 21 a1 1f 3c 30 06 56 3c ff e6 1c 3d
       -0.003851715 0.009743006 0.013062999 0.038306233
000090 2a 02 f0 bc 42 0c 73 bd e3 9a 8b 3c 20 85 1d bc
       -0.029297907 -0.05933786 0.01704163 -0.009614259
0000a0 e7 f2 0a bd a6 be 08 3d 3a 00 f5 3b 42 39 92 bb
       -0.033923056 0.03338494 0.0074768336 -0.004462392
0000b0 2e d8 36 bd 81 9d bc bb 36 7f 83 bd 0d be 96 3c
       -0.04463976 -0.0057560806 -0.06420748 0.01840117
0000c0 5a 22 9a bc 30 b4 6c 3d c4 7a 57 3c 01 37 cf 3c
       -0.018815208 0.057789028 0.013151828 0.025294783
0000d0 8b 5c 82 3c ee b3 87 3d 27 81 11 bd 61 b7 58 3d
       0.015913269 0.06626116 -0.03552356 0.05290926
0000e0 95 f4 c7 3c c9 bd 79 bd 3f 88 a4 3c b1 0d 63 bd
       0.024408618 -0.06097201 0.020084498 -0.05543298
0000f0 c2 3b 04 bd 76 20 3b bd 03 b6 54 bd 5d f9 9d 3d
       -0.032283552 -0.045685254 -0.051931392 0.07713578
000100 f4 78 9b bd 2c 7f 47 3d 73 fa 82 bd 69 3d a7 bc
       -0.07591429 0.048705265 -0.06395426 -0.020415025
000110 c2 f0 d7 bb 93 be a3 3d 86 08 0d bd c6 b7 be 3c
       -0.00658998 0.079953335 -0.034431957 0.02328099
000120 03 9a 4c 3c ab a3 58 3d 2a 0d 10 3c dc b7 a9 3c
       0.012487891 0.05289046 0.008792201 0.020717554
000130 4e 08 19 bd 78 81 4a bd 4a f6 ac 3d d2 79 76 bd
       -0.037361436 -0.049439877 0.084454134 -0.06017477
000140 fb 9b 5a bc b9 cc 0d bb 27 e1 b6 3d a7 c9 86 bc
       -0.013342853 -0.0021636917 0.08929663 -0.016453577
000150 2d 46 6c bd dc d5 83 bc 9c 5a 53 3d 3a 3b 56 3d
       -0.057684112 -0.016093187 0.051600084 0.052302577
000160 1c d1 8f 3d c8 38 97 bb cf 68 20 3d 98 4d 88 bd
       0.07022306 -0.004614923 0.039162453 -0.06655425
000170 19 e8 f4 3c 83 32 1b 3d 8a da 71 3d 3b 50 8e bd
       0.029895829 0.03788997 0.059046306 -0.069488965
000180 98 6e f3 bc d2 67 b2 3c c1 a6 46 bd ce 42 95 bd
       -0.029715821 0.021778021 -0.048498873 -0.072881326
000190 d9 f7 c1 bd f1 dc e2 3b 4d 92 3c 3d b9 17 e5 3c
       -0.09471101 0.006923311 0.04603796 0.027965413
0001a0 3f 4d eb 3b 30 bf 0e 3d ff 1e 40 bd 68 83 5b 3c
       0.0071808393 0.0348503 -0.04690456 0.013398029
0001b0 4c 4e c5 bc 6a 9f 2f bd ed df 9c 3d 74 4b 97 bd
       -0.024085186 -0.04287664 0.07659898 -0.073874384
0001c0 6c 82 34 3c ef f8 86 bd d8 9a 6a 3b f7 54 26 bd
       0.011017423 -0.06590449 0.003579786 -0.040608373
0001d0 b1 35 f5 3c ec f1 36 bd 3b b9 72 3d 2e be 8f bd
       0.029932829 -0.04466431 0.05925868 -0.07018696
0001e0 ea 08 79 3d 61 29 8a bd 29 5a 32 3d 7b 5e 39 bd
       0.060799517 -0.06746174 0.043543015 -0.04525612
0001f0 80 d5 ba bb 92 0a 69 bc 55 68 6b 3d d7 f9 3b 3d
       -0.0057017207 -0.014223712 0.057472546 0.045892563
000200 e5 28 99 bd 50 73 9d 3b 5a 36 3e bd 98 ca 8d 3d
       -0.07478503 0.004805006 -0.046438552 0.06923407
000210 0a 18 d4 3c ee 0a ec bc d6 69 09 bd b2 7f cd 3c
       0.025890369 -0.028813805 -0.0335482 0.025085304
000220 3b 3d 75 bd 38 54 58 3d d4 5c 8b 3d 93 57 66 3d
       -0.059872847 0.052814692 0.06804815 0.05623586
000230 f5 11 e1 3c 78 45 b1 bd 05 33 8a 3d 29 31 8a bc
       0.027474383 -0.08655828 0.067480125 -0.016869145
000240 24 1d e4 bc ba b2 ac bc 24 3f 90 3d b8 25 8e 3d
       -0.027845927 -0.021081317 0.07043293 0.06940788
000250 c9 07 d7 3b 6c 39 04 3d c8 25 99 bd 19 ba 47 3b
       0.0065622074 0.032281324 -0.07477909 0.0030475913
000260 33 09 87 bd 5c e5 14 3d 39 77 87 bd e3 a5 a5 bc
       -0.065935515 0.036351547 -0.06614537 -0.020220703
000270 e0 c2 86 3d 3a b3 ba 3d 1b 5a 06 bd 55 f9 11 bd
       0.06580138 0.09116216 -0.032800775 -0.035638172
000280 c6 aa fc 3b 70 a3 20 3d 8d 5e 5c bc fa 6d bc bc
       0.0077107875 0.039218366 -0.013450277 -0.02300166
000290 6f aa 7a bd e2 b1 fc 3c 5a 80 a5 3d a0 9c 2e bd
       -0.061197694 0.03084654 0.08081122 -0.042629838
0002a0 3b a5 40 3d f0 e0 18 3d 60 cd 9e 3d 86 79 18 bb
       0.047032576 0.037323892 0.07754016 -0.0023265793
0002b0 55 d3 bb 38 ef ee 8f 3d fa 05 86 3d 05 a7 ad 3d
       8.9562185e-05 0.07027995 0.06544109 0.08479122
0002c0 c5 c9 42 bd aa 73 1e 3d e4 8e 8c 3d af 68 26 bd
       -0.047555704 0.038684525 0.06863192 -0.040627178
0002d0 f5 f8 0b 3c d4 f2 b0 bc 4a 41 7c 3d fe a1 21 bd
       0.008543243 -0.021600164 0.061585702 -0.03946113
0002e0 78 2d 1a 3c e8 57 47 3d 92 89 bb bd 68 eb 9e bd
       0.009410255 0.04866782 -0.09157099 -0.07759744
0002f0 0c 35 50 bd b9 1c 55 3d bd 3e 89 3d 8a 83 54 bd
       -0.05083184 0.052029345 0.067014195 -0.051883258
000300 7d 61 a0 3c 34 59 30 bd d7 3a cd bc e9 b5 87 3d
       0.019577736 -0.04305382 -0.025052471 0.066264935
000310 2f b0 ec 3c 50 31 c3 bb f6 bf 22 3c 84 32 69 3c
       0.028892605 -0.0059568062 0.009933462 0.014233235
000320 74 1e 99 3c 86 72 f1 bc 06 95 45 bd d2 0c 3a 3d
       0.018691279 -0.029473554 -0.048237823 0.045422383
000330 5a 7c e5 3c 02 42 4a 3d 42 18 e5 bc 63 37 40 3d
       0.028013397 0.049379356 -0.027965669 0.04692782
000340 44 e6 86 3d 3f 78 80 3d fa 10 e4 3c a9 87 b6 3d
       0.065868884 0.06272935 0.027840126 0.08912594
000350 e3 8b 0e 3c 01 2b c9 3c d5 c9 b5 3d 3a 79 d4 3d
       0.008700344 0.024556639 0.08876387 0.10374685
000360 0e 97 25 bd 1b 5c c0 3d 61 35 f3 3c f2 ac d5 3b
       -0.04042726 0.09392568 0.029688539 0.006520861
000370 ad 61 91 3d aa 90 45 bd 75 f9 70 3d d1 2b 85 3d
       0.07098708 -0.048233666 0.05883165 0.06502498
000380 c2 33 8c bd 0b ba 57 bd 99 59 95 bd 85 f2 a0 bc
       -0.068458095 -0.05266766 -0.0729248 -0.019646892
000390 35 d5 bb bd 36 67 e6 bc b2 60 98 3c 98 59 89 3d
       -0.091715254 -0.028125387 0.018600795 0.06706542
0003a0 4c d0 4e 3d 64 51 57 3d eb 1c 37 3d 5d cd 49 bd
       0.050491616 0.052567855 0.044705313 -0.049268115
0003b0 10 62 94 bd 40 48 85 3b 8c ac ab 3d 6f 21 8f ba
       -0.072452664 0.0040674508 0.0838252 -0.0010919998
0003c0 01 61 29 bc 63 00 47 bd a6 97 18 bd 02 17 8e bd
       -0.010338069 -0.048584353 -0.037254 -0.06937982
0003d0 55 13 92 3d 6a cc 20 bc ed 63 9b bd c0 0f 2e 3c
       0.071325935 -0.009814361 -0.07587419 0.010623872
0003e0 88 76 5a 3c 62 76 55 bc 0e e5 e8 3c 76 e3 1d 3d
       0.013333924 -0.013028713 0.028429534 0.038547
0003f0 f2 30 b6 bd 17 73 87 bd 55 39 ae bb c2 b5 82 bd
       -0.08896054 -0.066137485 -0.005316893 -0.06382324

embed.4.bias f4 [128]
000000 7d 4e 31 3d c9 43 73 bd 92 bf 9f 3d be 4d a4 bb
       0.043287743 -0.059390817 0.07800211 -0.0050141504
000010 3a 84 e0 bc 20 09 8c 3c 24 ab ac 3d 12 6e 3d bd
       -0.0274068 0.017094195 0.0843108 -0.04624755
000020 30 81 1a 3c fb 86 12 bc 55 a3 2a bd 32 9e 46 3d
       0.009430215 -0.008943315 -0.04165967 0.04849071
000030 4a 0d f3 3b 3d 6a 91 bd 23 a5 63 bb 30 72 67 3d
       0.0074173557 -0.071003415 -0.003473588 0.056505382
000040 8d cf 24 bd 58 51 9e 3d 9d a2 97 bd c6 44 ea 3c
       -0.040237 0.07730359 -0.07404063 0.028597247
000050 dc be 65 3d e8 c3 ba 3c 83 45 15 3d 87 bb 6d 3c
       0.05609022 0.022798494 0.036443245 0.014510042
000060 84 a8 ac bc 0a 27 81 3d ef 36 9e bc 7e 39 94 3d
       -0.021076448 0.06306274 -0.019313304 0.07237528
000070 08 0e a9 3d c6 6e 99 bd 32 9a 95 3d da 3f b7 3c
       0.082546294 -0.074918315 0.07304801 0.022369314
000080 a9 73 71 bd f8 c7 42 bd ec ca 5b bc d6 5e aa 3d
       -0.058948193 -0.047553986 -0.01341508 0.0831887
000090 df c8 56 3d 49 12 02 bd 3d bc 84 bd 63 8b 75 bd
       0.05243766 -0.03175572 -0.06481216 -0.059947383
0000a0 6b 1d 32 bd a8 f3 6d bb b4 30 ab bd ad ab 9e bd
       -0.043485086 -0.003630856 -0.08358899 -0.07747588
0000b0 22 83 67 bd fd e5 bc 3c c8 a2 e5 3c c3 ce cf 3c
       -0.056521542 0.023058886 0.028031722 0.025367146
0000c0 1d 7c 93 3d f4 10 a1 3c 60 85 11 bd f0 35 12 3d
       0.07201407 0.019661404 -0.035527587 0.03569597
0000d0 00 ff 2e bd 23 74 98 3d b9 5c 04 bd 7c a9 69 bd
       -0.042723656 0.07444026 -0.03231499 -0.0570464
0000e0 e4 fa 8e bc da 34 4b bd b6 2a 2a bc e6 eb 5c bc
       -0.017453618 -0.04961095 -0.01038616 -0.013483977
0000f0 14 99 06 3c 89 49 47 bc 18 b2 76 bd 81 88 ac bd
       0.008215208 -0.012163528 -0.060228437 -0.084244736
000100 c2 d8 85 bd 1c e8 a4 bd 42 57 b0 bd 33 c9 b2 3d
       -0.06535484 -0.08052084 -0.08610393 0.08729782
000110 16 48 31 3d 51 95 1f 3d af 55 62 3d 44 f0 ee 3c
       0.043281637 0.03896076 0.055257495 0.029167302
000120 9c 33 e2 bc 23 ec a5 bc 6b 55 17 bd 17 36 1d 3d
       -0.0276125 -0.0202542 -0.036946695 0.038381662
000130 14 af bf 3c 04 66 99 bd 33 16 71 3c ed 7b 8c bd
       0.023398913 -0.07490161 0.014714765 -0.068595745
000140 ea e2 8b 3d 7e aa 0c 3c ee c7 40 bb 3d 6c 4f bd
       0.0683039 0.00858557 -0.0029416042 -0.050640333
000150 75 73 4e 3c de b8 57 3c ce 35 ab 3c ed 04 77 bd
       0.012600769 0.013166634 0.02089968 -0.060307432
000160 0a 71 1f bd b7 35 75 bd a4 f2 51 bd f1 f7 15 bd
       -0.03892616 -0.05986568 -0.05125679 -0.03661341
000170 bb 8d 93 bd 61 62 ad 3d 23 4f a8 bd f2 c3 ae bc
       -0.07204767 0.0846603 -0.08218219 -0.021333668
000180 ac 85 8a b9 34 2f 0b bd 95 c6 ad bc d3 45 22 3d
       -0.00026421004 -0.033980563 -0.021212855 0.03961737
000190 b0 50 b4 bc 17 60 e9 bb 6b 92 9c 3d da 3b 07 bd
       -0.022011131 -0.0071220505 0.076451145 -0.033016063
0001a0 13 8f 94 bb b1 d4 5e 3d 1a 69 9b bc e9 a6 a3 bd
       -0.0045336573 0.054402057 -0.018971015 -0.0799082
0001b0 ac 29 88 3d 4a 32 9f bd 96 9a ae bd e2 08 0e bd
       0.06648573 -0.07773264 -0.08525579 -0.03467644
0001c0 1b b9 56 3c 66 3a 8f 3d 7b 38 93 bd 58 1a 17 bd
       0.013105656 0.069935605 -0.07188507 -0.036890358
0001d0 ec 65 a4 3d ac c9 8a 3d 8b 7a 03 3d 1d 17 9c bd
       0.080272526 0.06776747 0.032099288 -0.07621596
0001e0 fe ee 4e 3d 78 5a ef bb 3d 79 86 bd 9d 12 91 3d
       0.05052089 -0.007304486 -0.06566093 0.07083628
0001f0 0d ed 75 bd ff 8f 63 3c b2 76 4a bd 42 30 8a 3d
       -0.060040522 0.013889312 -0.049429603 0.06747486

cls.weight f4 [2, 128]
000000 a5 91 25 3c 56 04 b3 bc 17 30 13 3d da 72 ae 3d
       0.010105525 -0.021852653 0.035934534 0.08518
000010 15 93 ba bb 09 09 87 3d 67 fd b3 bc 05 5f 6d bd
       -0.005693803 0.0659352 -0.021971418 -0.057951946
000020 6a 0f 11 bd 25 49 b7 bd 8a 0b 08 3d 85 4b 14 3d
       -0.03541509 -0.08949498 0.03321413 0.036204834
000030 0d 96 66 bd 1e da 88 bd 9c 67 53 3d ab 36 5e 3b
       -0.056295443 -0.066822276 0.05161248 0.0033907096
000040 ab 80 6d bd 12 8d 12 bc 41 b3 d2 bc 8a e5 a6 3c
       -0.057984035 -0.008944767 -0.02572024 0.020373125
000050 fe 41 d2 bc 35 de 98 bd 54 08 63 bd a9 d8 20 bd
       -0.025666233 -0.07464258 -0.055427864 -0.039269123
000060 fe 10 a2 3b 81 ad 33 3d f5 52 33 3c 51 f8 53 3d
       0.0049458733 0.043866638 0.0109450715 0.051750485
000070 99 5e 04 bd c2 d5 9a bc 83 9e 68 bd 7b 42 a8 bd
       -0.032316778 -0.018900756 -0.056791794 -0.08215805
000080 77 36 60 bd f5 12 1d bc b8 e3 a1 3d fb 74 ca bd
       -0.05473944 -0.009587039 0.07904762 -0.098855935
000090 6d f8 71 3d b4 cd 1a 3d b5 60 00 3d 93 42 32 3d
       0.059074808 0.03779383 0.031342227 0.04352052
0000a0 33 29 39 3d bf 89 71 3d 13 ea 96 3c a6 ae 96 bc
       0.045205306 0.058969256 0.018422162 -0.018393826
0000b0 85 e1 01 3d fb 4f 8f bc fb 44 53 bd ce 04 0d 3d
       0.031709213 -0.017494192 -0.051579457 0.03442841
0000c0 cb 99 b5 3d 99 aa 40 3d d7 c5 00 bd 52 2a 82 3b
       0.08867224 0.047037695 -0.031438675 0.00397233
0000d0 03 7b 1c 3d a0 3a 3f 3d fa 68 9e bd 68 96 5d 3b
       0.03820325 0.04668677 -0.077348664 0.0033811573
0000e0 5a f6 9c bb 8c 11 a7 3d 52 3a d3 3c 26 4a 2e bd
       -0.0047901096 0.08157644 0.025784645 -0.042551182
0000f0 5f 4f 38 bd 07 79 8d 3d 6b 8e b3 bc 05 49 8f 3c
       -0.04499757 0.0690785 -0.021918496 0.017490873
000100 e1 52 af 3d 98 5e 94 bd 45 96 4d bb 9a 6d 90 bd
       0.0856073 -0.07244605 -0.0031370085 -0.07052155
000110 21 33 12 bd 35 15 2e 3d d7 a9 9a bb de ba 6e 3d
       -0.03569329 0.042500693 -0.0047199535 0.05828368
000120 86 0b 4f bd 3d 2b 64 3c 81 b5 1d bd 84 55 5c 3d
       -0.0505481 0.013926324 -0.038503174 0.05379249
000130 0f 1b 21 bd 76 1c 83 3d e1 ca 31 39 e4 2b 15 3d
       -0.039332446 0.06401913 0.00016955614 0.03641881
000140 68 15 3a bd d2 2c 4f 3c bf 1c 92 3d 24 e8 88 bd
       -0.04543057 0.012644963 0.07134389 -0.06684902
000150 07 e0 76 3d 6b f5 2b 3d 04 23 2c bd 8f df 80 bd
       0.060272243 0.041982096 -0.04202558 -0.062926404
000160 a7 8f 1d 3d 60 7d f0 bb a7 0a 7d 3d 44 17 90 3c
       0.038467076 -0.0073391646 0.061777737 0.017589219
000170 79 54 9f 3d 27 41 9c bd 60 b3 57 bc bd 5d 27 3d
       0.07779784 -0.07629614 -0.013165325 0.04086088
000180 53 62 43 bd 4e d9 63 bc 5d 10 61 3b e8 2b 86 3d
       -0.04770119 -0.01390679 0.0034342029 0.06551343
000190 1c ad 0d 3d f5 d4 96 bd c4 ab 9a 3c c0 9f a7 3d
       0.034588918 -0.07364837 0.018880732 0.08184767
0001a0 db 3d 4d 3d ed ba 91 3d dd 84 61 bc ba 6e 96 bb
       0.050107818 0.071157314 -0.013764587 -0.0045908364
0001b0 a3 72 a8 3d 4a 8a a1 3d 9c 00 92 bc 5d 30 aa 3c
       0.0822499 0.07887705 -0.017822556 0.020775015
0001c0 14 5f ab 3b 6f 63 98 3d c5 49 36 bd 35 f9 fa bb
       0.00522984 0.074408405 -0.044503946 -0.0076591023
0001d0 a8 38 1c 3d 73 d0 ae 3a 38 a9 32 bd 60 b7 68 3d
       0.03813997 0.0013337269 -0.04361841 0.056815505
0001e0 c5 46 2c bc 49 a6 5b 3d 7d bc d4 bc b7 93 a7 bd
       -0.01051492 0.05362538 -0.025968784 -0.08182471
0001f0 19 59 83 bd af 0f 2d 3d 44 7e 65 3d ef 5b c1 bc
       -0.064134784 0.042251285 0.05602862 -0.023603408
000200 43 90 4d 3d 0d bb 88 3c 40 46 52 3d 54 4d a9 3d
       0.050186407 0.016690755 0.051336527 0.08266702
000210 f0 16 72 3d 0b e1 7f 3d 6f ff 86 bd de 08 61 bd
       0.059103906 0.062470477 -0.06591689 -0.054940097
000220 de 39 6c 3d 70 78 b0 3d 22 f1 b7 3d 9f e4 a9 3c
       0.057672374 0.08616722 0.08981539 0.020738898
000230 f7 16 d9 bc 5c 52 ad 3c 83 a9 1e bd be 1a 3f bb
       -0.026500208 0.021157436 -0.038735878 -0.0029160227
000240 01 67 a4 3d 68 6a 63 bd 63 31 a5 bd 97 fb 80 bc
       0.08027459 -0.0555214 -0.080660604 -0.015744967
000250 8c 47 10 3d 9a 1a 48 bd bc 49 75 3d 51 77 dc 3b
       0.035224482 -0.048853494 0.05988477 0.006728091
000260 b7 d6 e6 3b 86 93 5c 3d 6c 45 57 3d 4e ee d0 b9
       0.007044639 0.053851627 0.05255644 -0.00039850402
000270 5b 88 a2 bd f0 c6 84 3d 1f 30 cc bc 67 9d 30 bd
       -0.07936164 0.06483257 -0.02492529 -0.04311886
000280 14 62 f6 3c ca 32 4f 3d 32 30 89 3c ba 91 19 bd
       0.030076064 0.050585546 0.016746614 -0.03749249
000290 c4 f1 95 bd b2 87 3c 3d 7f 6e 32 3d ab 02 65 3d
       -0.07321504 0.046027847 0.04356241 0.055910747
0002a0 bd f9 b8 3d 49 72 fb bc 57 eb 2a 3d f0 86 b3 3d
       0.09032009 -0.030694144 0.041728344 0.08765972
0002b0 28 85 5d ba d4 48 b3 bc fd 81 76 bd 7d 03 2c ba
       -0.0008450323 -0.021885313 -0.06018256 -0.0006561799
0002c0 6f 1f 38 bd 6d 93 27 bd 9a ad b9 bd c8 0d ca 3c
       -0.044951852 -0.04091208 -0.09066315 0.024664775
0002d0 40 2d 8c bc b7 a8 25 3d da 79 43 3d fd 18 a2 bd
       -0.01711142 0.040444102 0.04772363 -0.079149224
0002e0 e4 58 1a bd f4 b9 a7 3d f9 34 82 bc 96 ad 7f 3d
       -0.03768243 0.081897646 -0.0158944 0.062421404
0002f0 34 f5 73 bd 73 8a ab 3d 08 89 07 3d ba 41 81 bd
       -0.059560016 0.083760165 0.033089668 -0.063113645
000300 eb ce 4b 3c 0d 7b 4f 3d 81 31 32 3d c4 0a 03 3c
       0.01243947 0.05065446 0.04350424 0.007998172
000310 c0 9c d0 bc c2 9c 1a bd 53 26 73 bd 75 27 94 3d
       -0.02546537 -0.037747152 -0.05936272 0.07234088
000320 c7 29 ee 3b 30 8c 36 3d 15 ad 50 bd b3 27 86 bd
       0.007268164 0.044567287 -0.050946314 -0.06550541
000330 f0 dc c4 3b 4b 8e 5c 3d c2 b8 96 3d f5 68 73 bc
       0.006007783 0.05384664 0.073594585 -0.014856567
000340 dd 2c 80 3c 66 23 7a bc 41 a8 04 bd 22 a5 b3 3d
       0.015646392 -0.015267229 -0.032387022 0.08771731
000350 72 c9 d9 3c 5d 1a 9f 3d 53 6d a8 bd fe 6b 49 3c
       0.026585314 0.077687 -0.08223977 0.012293814
000360 5d ba 6c bc 5f 37 48 3d 04 24 d1 3c e9 27 02 3c
       -0.014448729 0.04888093 0.025529869 0.007944086
000370 66 cc 74 3d f3 4e 17 bd a3 4a b7 bc bf c9 2e 3d
       0.059765242 -0.036940526 -0.022374457 0.04267287
000380 8a db 40 bd 5a 34 32 3c 1b 51 c3 3b ae 3b 56 bd
       -0.04708437 0.010876739 0.0059605963 -0.05230301
000390 d1 5b 43 bd 6a ec 96 bd fa a7 99 bd 4b d5 1d bd
       -0.047694985 -0.07369311 -0.07502742 -0.03853349
0003a0 2a 71 b5 3c ed a9 2b 3d aa db 3d 3d c5 37 c8 3c
       0.022148687 0.0419101 0.046352066 0.024440655
0003b0 a6 de 56 bd ca 5a a5 bd a1 09 8d 3d f8 f8 5d 3c
       -0.052458428 -0.08073957 0.06886602 0.013548128
0003c0 4e 7e 87 3d 4b 68 a2 bd d0 79 2d bd 90 fd b6 bb
       0.066158876 -0.079300486 -0.042352498 -0.005584426
0003d0 1c cc 89 3d 3d 3e b3 bd ce 38 38 bd 9a 21 47 bd
       0.06728384 -0.087521054 -0.04497605 -0.04861603
0003e0 ff c6 b9 3c 1f 8e f5 3b f9 33 e1 bc a1 8c 5b 3d
       0.022677897 0.007493749 -0.027490603 0.05360091
0003f0 d8 4f 80 bd 80 19 e8 bc 57 d1 07 bd ba fd 0b bc
       -0.06265229 -0.028332472 -0.033158626 -0.00854438

cls.bias f4 [2]
000000 22 39 26 ba 88 16 ed b9
       -0.0006340911 -0.0004522095
