models/tf_final.pth (torch, 950450 bytes, 19 tensors)

phase.alpha f4 [1, 1, 128]
00000000: a1bd 813f 7914 803f 7a51 813f 995b 7d3f
00000010: c37d 813f 18a3 7e3f 8eb0 803f e16b 803f
00000020: fc38 803f 0d2b 7e3f d2df 813f 92a7 803f
00000030: 3a21 803f 357a 7f3f bf10 813f 3ce5 7e3f
00000040: 1c1f 803f e26a 813f c167 803f 77ee 803f
00000050: e3bf 803f fb02 803f 9f39 803f f82a 803f
00000060: 039f 803f 3fec 803f b2e0 803f 1da1 7f3f
00000070: ae14 803f 5ffb 7f3f 851c 813f 38ad 7f3f
00000080: 0196 7f3f c43e 813f 18c9 7f3f f2b7 803f
00000090: ebcf 803f d4da 803f 759a 7f3f f05c 803f
000000a0: 8f66 813f 0bf6 803f ac97 803f 4d6a 803f
000000b0: b5df 803f dc22 813f 7406 813f 18b4 7e3f
000000c0: 7ed0 803f 8c1d 803f 38f3 803f 0562 7f3f
000000d0: cf13 7f3f ae29 803f 9809 813f b557 803f
000000e0: c3b9 7f3f 6851 7f3f 153f 813f 452c 813f
000000f0: bf09 803f 653b 803f 63ce 7e3f bdc7 803f
00000100: 9b0e 813f f03b 803f abb7 7f3f 1d21 803f
00000110: 7dc7 803f 1676 803f 5d7b 803f 3115 813f
00000120: d565 803f 1c78 803f e27a 803f 2dd1 803f
00000130: 6b8e 7e3f 7a64 813f 31fc 7e3f 40e4 813f
00000140: 26ec 813f 9365 813f 762e 813f 1423 7d3f
00000150: 3a62 7f3f 3d64 803f 5fdc 7e3f fe1c 803f
00000160: dca2 7f3f 3f06 813f 83ba 803f cd2c 813f
00000170: 1304 813f bf1a 7f3f 5d03 7f3f e911 803f
00000180: 8538 803f c8df 803f 6b55 813f 75d5 803f
00000190: 9794 7f3f 2e86 803f 6442 803f f23e 803f
000001a0: d11b 803f b2f5 7f3f 33d8 7f3f 3536 813f
000001b0: 547b 813f 527b 7f3f cea7 7b3f c86c 7e3f
000001c0: c0ae 803f b574 7f3f 6819 7e3f a669 7f3f
000001d0: 9f6b 803f 3a60 803f 7a2a 813f 3519 813f
000001e0: 9e7c 803f 60e3 7f3f 2869 803f 0e38 813f
000001f0: 7a0a 823f ca22 803f 92d3 803f f5b9 803f
1.0135995 1.0006248 1.010299 0.9896789 1.0116504 0.9946761 1.005388 1.0032922
1.001739 0.9928444 1.014643 1.0051138 1.001014 0.9979585 1.0083236 0.99568534
1.0009494 1.0110743 1.0031663 1.0072774 1.0058559 1.000091 1.0017585 1.0013113
1.0048527 1.0072097 1.0068572 0.99855214 1.0006311 0.99992937 1.0086828 0.99873686
0.9983826 1.009728 0.9991622 1.0056136 1.0063452 1.0066781 0.9984506 1.0028362
1.0109423 1.0075086 1.0046287 1.003244 1.006827 1.0088763 1.0080094 0.9949355
1.0063627 1.0009017 1.0074224 0.9975894 0.996396 1.001272 1.0081053 1.0026766
0.99892825 0.9973359 1.0097376 1.0091635 1.0002974 1.0018126 0.9953367 1.0060955
1.0082582 1.0018291 0.9988963 1.0010105 1.0060879 1.0036037 1.0037647 1.0084592
1.0031077 1.0036654 1.0037501 1.0063835 0.9943606 1.0108788 0.99603564 1.0147781
1.0150192 1.0109123 1.0092304 0.9888165 0.99759257 1.003059 0.9955501 1.0008848
0.9985788 1.0080031 1.0056919 1.0091797 1.0079368 0.99650186 0.99614507 1.0005466
1.0017248 1.0068293 1.0104192 1.0065142 0.99836105 1.0040948 1.0020261 1.0019209
1.0008489 0.99984276 0.9993927 1.0094668 1.0115762 0.99797547 0.98302925 0.99384737
1.005333 0.99787456 0.99257517 0.9977058 1.0032843 1.0029366 1.0091088 1.0085818
1.003803 0.9995632 1.0032091 1.0095232 1.0159447 1.0010617 1.0064566 1.005675

proj_back.weight f4 [128, 256]
00000000: 13ef cabd 2af6 763d 5f02 ecbd e0a1 a8bd
00000010: 6e1d 82bd 35bb 8d3c 3ee0 e5bc b032 a6bd
00000020: c5b2 d13d ad1f 603d 09a3 163d f7f6 d7bd
00000030: 77dc f43c 4761 da3d 3725 093c d5bd 573d
00000040: 0d40 debc bc82 873d c68f 57bd 1018 efbd
00000050: 9da8 f13d 6193 b3bd 2d89 da3d c210 fbbd
00000060: 2e75 ca3d 0fbc f4bb 7566 9fbd bb39 8d3d
00000070: d7cd babc d4a5 06bd b530 b8bc 4922 f4bc
00000080: 0911 40bd 33f5 1dbd 814d b6bd 2cb0 babd
00000090: 747b c1bd 1b03 58bc c865 5ebd b170 173d
000000a0: 5beb 62bc 7663 c63d e178 963d 950c 24bd
000000b0: 3aaa 4fbd 869a a9bd c787 68bd 4998 e93d
000000c0: 47fd 613d a4d9 11bd 0931 52bd aa26 cc3d
000000d0: 4a0f f03d e685 b8bd 6517 083d 9273 783d
000000e0: 6a56 efbd b91b ddbc 376a 573d e3d1 4f3d
000000f0: 2055 cfbd 7d09 6cbd dc1f 0c3d 8801 b43d
00000100: a69f bdbd 4634 3b3d d460 823d d3a1 d6bd
00000110: b19d d4bd ab88 4ebb 8839 0c3d ab45 7d3c
00000120: d1d3 18bc c8da 4f3d 30df 82bb e6b8 80bd
00000130: cb34 19bd b3d5 22bd 4b78 903d d997 bdbb
00000140: c3ff 4bbc bb4c b5bd 5ee9 80bd 302c c23d
00000150: 0eef 733d e8b7 70bd 36b3 a23d ac01 e13d
00000160: 5c6c efbc cfab 03bd ec30 a83d 6aad 953c
00000170: 28dd e4bd 22a1 cdbd bd0a 29bd 5e0e 91bd
00000180: 42fc ec3d 7108 b93d 58ed e43d 15c0 c93c
00000190: a2a5 a4bc cf3f 50bc 43e8 f43d 0776 393a
000001a0: ff80 d5bc 2896 17bd 1ffc 1c38 b8da 3a3d
000001b0: 6785 66bd 0234 c93d 39a6 d4bd b19f 6b3b
000001c0: cb04 e43d 1ac0 953d 7192 463d 5ea4 22bb
000001d0: 0fac bdbd 6b05 a03d 70aa 8ebd 713d ba3d
000001e0: 72f7 88bd e96b 9bba 3ab4 dc3c d7de 4e3c
000001f0: 79f4 7f3d 61e2 9cbd 5c77 0f3d 06e2 abbd
00000200: a478 b6bd c426 4e3d 3040 4a3d a0ef 7ebd
00000210: 9006 8fbd ccd7 fabd 2fca f53d 89ed 4abd
00000220: c561 b2bc 8c3e 00be f4d0 96bd 2591 adbd
00000230: fc59 ab3d 983b 1bbd d0cc 7f3d 9226 b03b
00000240: d5a9 c33d 66cc fe3d c286 f8bd b295 b03c
00000250: 839d f3bc d9a1 c5bb 633d a5ba cf10 bc3d
00000260: 5d3b 7a3d e45d e33d 155d a8bc f031 94bc
00000270: 8203 ef3d cca1 b4bd 2a9e a9bd 54bc fa3d
00000280: 45fd b2bd 711e ecbd 71c1 213c c3a1 5fbc
00000290: b0de 773d 85ce 053d 2696 d9bd 6793 b53d
000002a0: 9bc2 94bd f536 94bc db26 cb3c 09e4 d33d
000002b0: 0a54 dcbd 157b 8bbd 4143 6bbd 56d8 8cbd
000002c0: 8855 c3bd 2b65 dcbd ffd3 a2bd 8b28 983d
000002d0: 09d3 a33d 2bbc 27bd d12a df3d a492 aabd
000002e0: f1f9 fdbc b3e8 e9bd ff47 c43c 851b b5bc
000002f0: 3c3c fd3d e1ca d1bd c7d9 023d 59be c5bd
00000300: b044 b5bd 3844 3dbd c3d0 b5bd 13d2 d43d
00000310: cd04 39bc 5fb1 3b3d f137 4dbd 6fe4 56bd
00000320: c644 edbd 9b5e 94bc 06fe 16bd 5bd8 263d
00000330: 573a 593c ff4e 01be ac6d 0bbd d9b5 083d
00000340: 531b 91bd 8ac5 433d ca9b f4bc 84ae c33d
00000350: e449 6b3c 3565 4d3d 5eb0 ad3c 12ef 9b3d
00000360: 3a2a 55bc e17f f63d 26ad d03c 5f81 8f3c
00000370: b8be aebd d080 e53d 7aca b33d 7403 363d
00000380: e65a 433d 5037 d23d b82b 86bd 379a 8b3d
00000390: 0c0a ffbc e3ff fa3d 13ae 0d3b 1c75 cfbd
000003a0: 12fe 10bd 640e af3c 9738 a1bd cbe7 b0bd
000003b0: f5f3 583d 9d8e e3bd 8920 0b3c 7110 a13d
000003c0: da4d dbbd 4246 933d 67db edbc 2950 35bd
000003d0: 1734 8dbd bfbd c5bd 1a56 9dbd 505b fbbb
000003e0: 178d 793d 8f93 40bd 8c1a 0a3d 2565 433c
000003f0: db12 533d 1882 fc3d b153 373d 6543 c8bd
-0.09908881 0.060293354 -0.1152389 -0.08234 -0.063532695 0.017301181 -0.028061029 -0.081151366
0.10239176 0.05471771 0.036776576 -0.10545152 0.029890282 0.106630854 0.008370689 0.052671272
-0.027130151 0.066167325 -0.052627347 -0.116745114 0.117997386 -0.08768345 0.106706955 -0.12259056
0.098856315 -0.0074687074 -0.07783214 0.06895777 -0.02280323 -0.03287299 -0.022484163 -0.029801505
-0.046891246 -0.03856392 -0.089015014 -0.09115633 -0.09447375 -0.013184334 -0.054296285 0.036972705
-0.013850058 0.096869394 0.073472746 -0.04005106 -0.05069945 -0.08281426 -0.056770112 0.11405999
0.055173185 -0.03560795 -0.051316295 0.09968312 0.11721666 -0.09009914 0.033225436 0.06065709
-0.11686404 -0.026990758 0.05259153 0.050737273 -0.10123658 -0.057626236 0.03421007 0.087893546
-0.09258966 0.04570415 0.06366125 -0.10480084 -0.1038164 -0.0031514566 0.034234554 0.015458505
-0.009327845 0.050745755 -0.003993891 -0.062852666 -0.037403863 -0.03975458 0.07054194 -0.005785924
-0.012451115 -0.08852526 -0.06294511 0.09481084 0.059554152 -0.058769137 0.07944338 0.10986647
-0.029226474 -0.03214627 0.08212456 0.018271167 -0.11174995 -0.10040499 -0.041270006 -0.070828184
0.11571552 0.09034813 0.11178082 0.024627725 -0.020098511 -0.012710526 0.11958363 0.00070747774
-0.026062487 -0.037008435 3.7428104e-05 0.045618743 -0.056279566 0.09824373 -0.10383267 0.0035953338
0.11133727 0.07312031 0.0484795 -0.0024817209 -0.09261333 0.078135334 -0.06966102 0.0909375
-0.066878214 -0.0011857721 0.026941407 0.012626371 0.062489007 -0.07660366 0.03502594 -0.0839272
-0.08909729 0.05032994 0.04937762 -0.062240243 -0.069836736 -0.12248191 0.12001454 -0.049542937
-0.021775136 -0.1252386 -0.073640734 -0.0847495 0.083667725 -0.03789863 0.062451184 0.0053756917
0.09553877 0.1244133 -0.12135078 0.021555755 -0.029738193 -0.0060312566 -0.0012606796 0.091828935
0.06109177 0.111018926 -0.020552197 -0.018090218 0.11670591 -0.08819923 -0.082821205 0.12242952
-0.087397136 -0.11529244 0.00987278 -0.013649407 0.060515106 0.032667655 -0.10624342 0.088660054
-0.072636805 -0.018092612 0.024798801 0.10346229 -0.10758217 -0.068105854 -0.057437185 -0.068772
-0.09537798 -0.10761484 -0.07950591 0.07429608 0.07999236 -0.040950935 0.108968385 -0.08328751
-0.03100297 -0.11421337 0.023960112 -0.022107849 0.123650044 -0.10243774 0.03194597 -0.096554466
-0.08850992 -0.046207637 -0.08877709 0.10391631 -0.0112926485 0.04582345 -0.050102178 -0.052463945
-0.11585383 -0.018111518 -0.03686335 0.040733676 0.013258538 -0.12627791 -0.034040138 0.03337655
-0.0708529 0.04779581 -0.029859442 0.095547706 0.014360879 0.050145347 0.021202262 0.076139584
-0.013010556 0.1203611 0.025473189 0.017517744 -0.085324705 0.1120621 0.08778854 0.044436887
0.04769411 0.10264456 -0.065513074 0.068165235 -0.03113272 0.12255838 0.002161865 -0.10129759
-0.03539855 0.021369167 -0.07872122 -0.08637961 0.05296703 -0.11111186 0.008491644 0.07864464
-0.107082084 0.07191135 -0.029035283 -0.0442659 -0.06894701 -0.09655332 -0.07682438 -0.0076707974
0.06092557 -0.047015723 0.033716723 0.01192597 0.051531654 0.12329501 0.04475755 -0.097784795

proj_back.bias f4 [128]
00000000: dc55 03ba b0cb 533a 1a6d cd3a 7373 4dbc
00000010: b300 aaba 511c 74ba 8133 50b9 b925 08b9
00000020: c2b8 063c 77a8 c839 8fe2 c0ba ac95 13ba
00000030: 2e12 8fba f6e8 aabb efbf 303b e9af 70ba
00000040: 692f 97bb ccde 7b3a 2156 06bb 7da9 a03b
00000050: d25b 39bb 1164 4e3a 9e05 05bb baa9 fc3a
00000060: 3b46 49bb f85f ebba 157d 623a 4c09 e63b
00000070: e443 40ba d1d5 ee3b 7ad8 0bbb 57bd 2e3a
00000080: d3bf 1bbc 1587 d83b 04d3 263a b774 10b9
00000090: ba15 a2b9 33a8 2339 940f bcb8 885b 5ebb
000000a0: 19b6 c1ba 00e4 9f38 b926 b839 9d3a 3cbb
000000b0: b917 b1bb dca0 b73b 316d 11bb 4508 49bb
000000c0: a8c4 9cba 67d9 3abb 4db0 5f3b 37cb 7138
000000d0: bdb2 d7b9 352d a5ba 9cfd 27bb a65c 7cbb
000000e0: 0ae5 ce3a bf6d 81bb 7d97 0db8 bfe8 8cbb
000000f0: d6fa 893b 818c bf3a deb9 6dbb 890f 7139
00000100: 33b5 183b d817 913b a3d6 b4b8 94ab 06b8
00000110: da8b 32ba 137b 71ba dd3d b83a 80a8 88b8
00000120: bafb 0d3b 30a7 2d3a 5350 963b d72d 99ba
00000130: 6afb 8dba c04c 97bb 5d1f e63a 84d6 ae3b
00000140: 643b 16ba d7d2 9eba 11e8 b73b 23bb 883a
00000150: 9d73 afbb 01ed b238 7a56 27bb e3a2 25ba
00000160: edea 293b a1af 7f3a ba11 b33b d470 7cbb
00000170: 7caf ccb9 fc2c 32ba c4f7 d93b 2432 c9b9
00000180: 23cd df3a 90e6 c1bb dccc e53a 0c2c 1c3c
00000190: 5f52 6ab9 ee2e cb39 fd99 073a 7008 5c3b
000001a0: 4a07 a2b9 710c 97b8 f7fa 5439 d50a 82ba
000001b0: 32f4 9b3b 820c 703b ee90 523b 8ee2 5f3b
000001c0: dc32 95ba d51c e53b cc54 a938 28e6 003b
000001d0: 3df4 b13a 8b87 e63a 3f3e eaba 5116 cf39
000001e0: 4add 11bb 9a85 07ba 5aec cd3a 3bc6 19bb
000001f0: ef41 8cbb 052c 09bc a44e 02bb 254d 043a
-0.00050100475 0.0008079363 0.0015672774 -0.012539732 -0.0012970179 -0.0009312081 -0.00019855612 -0.00012984023
0.008222761 0.0003827249 -0.0014715957 -0.0005629908 -0.0010915452 -0.0052157594 0.002696987 -0.0009181486
-0.004613806 0.00096080895 -0.0020498114 0.004903017 -0.002828349 0.00078731874 -0.0020297538 0.0019276657
-0.0030712027 -0.0017957678 0.00086398545 0.0070201512 -0.0007334335 0.0072886725 -0.0021338747 0.0006665787
-0.009506184 0.0066079 0.0006363841 -0.0001377639 -0.00030915235 0.0001560755 -8.96744e-05 -0.0033929069
-0.0014779001 7.624179e-05 0.00035124065 -0.002872146 -0.0054044393 0.0056038927 -0.0022190327 -0.0030675095
-0.0011960464 -0.002851093 0.0034132183 5.7648136e-05 -0.00041141166 -0.0012601974 -0.002563334 -0.0038507371
0.0015784812 -0.0039498503 -3.3758104e-05 -0.0043002064 0.00421081 0.0014614017 -0.0036274116 0.00022989338
0.0023301363 0.004427891 -8.623048e-05 -3.2107884e-05 -0.00068110006 -0.000921176 0.0014056523 -6.516371e-05
0.0021664933 0.0006624339 0.004587212 -0.0011686635 -0.0010832374 -0.0046173036 0.0017556954 0.005335631
-0.0005730896 -0.0012117279 0.0056123813 0.0010431748 -0.0053543583 8.531847e-05 -0.0025533722 -0.00063185225
0.002592738 0.0009753649 0.0054647597 -0.00385194 -0.00039040658 -0.00067968643 0.0066518504 -0.00038375065
0.0017074685 -0.005917378 0.0017532366 0.009531986 -0.00022346665 0.00038754143 0.00051727874 0.0033574365
-0.0003090448 -7.2025585e-05 0.00020311387 -0.0009921441 0.004759335 0.003662855 0.0032129842 0.0034162137
-0.0011382955 0.0069919624 8.0743426e-05 0.0019668434 0.0013576817 0.0017588002 -0.0017871334 0.00039498744
-0.0022257143 -0.00051697495 0.0015710697 -0.0023464102 -0.004280321 -0.0083723115 -0.00198833 0.0005046896

pos_encoder.rank_emb.weight f4 [32, 128]
00000000: 6bf2 143b ad07 84bc 62a3 fa3c 2b61 e4bc
00000010: d006 de3b 37f4 b53c dbf6 97bb 57bd b43c
00000020: 10c2 c6bc 0819 1cbc ab24 233c 1bc6 f13a
00000030: 11aa 193b caa1 e1bb 3a58 11bc cf9a debc
00000040: 62a7 30bd 956e 353d 1d0e 4e3b 8aeb a1bc
00000050: bb66 28bd 5e87 573d cc2d d63c 3bce 1ebc
00000060: 4b5e 103a 0114 003c 664d f0bc fee4 4aba
00000070: 1b7f 3d3c 8234 ccbb 2222 3b3c fb91 703c
00000080: d4c2 f33c f44a b6ba 9f8f 8ebc e404 843c
00000090: cc9a 6b3b b25d 84bb 3893 c8b9 543a 2a3c
000000a0: 2f0e 283c 36ec 153c d056 babc bc4e d5bc
000000b0: 78b1 56bc 8f17 533b 333e 5abc b053 9c3c
000000c0: 7d75 323c 8997 d6bc e6a3 803c 4e4f 663c
000000d0: d7cc 033b 2d77 033b 2798 c33c f764 4a3d
000000e0: 6a26 c4bc 3e5b 1d3c 846e 023d e3b1 8abb
000000f0: b7a7 7dbc 5ea5 a93c 7994 cdbc 5d3c 3e3d
00000100: 1bfc 8f3c 2133 d43b 41aa adbc 4f39 15bc
00000110: 0f4e a7bc 70c9 6dbb 2924 ad3c f2dd 943b
00000120: e249 dd3c 490d 033c ca21 b0bc ce1b b9bc
00000130: ae13 b7bc 8771 263a 5675 81bb b9c3 783c
00000140: 8cc9 98bc d621 313c e217 11bb 4bf2 db3b
00000150: a081 2fbb 3bc9 8f3b ddfa ea3c 0032 a83c
00000160: 7081 5f3c 6023 00bc 3c60 b0bc 5a07 0abc
00000170: e05c 3c3d c962 343a 4d57 29bc 80df f1bc
00000180: 5f89 14bd 2917 e2bb fc1b 0f3d 1353 0b3d
00000190: d035 5f3c d725 e93b 0b68 dcbb 6673 54bc
000001a0: 3ef5 2d3a aa5e f13c 94db 64bc f3e3 253d
000001b0: 0e59 fe3c 0429 4b3b f344 8d3c 64f7 a93c
000001c0: ee13 7c3c 471b 913b ca0f 85bc b910 b6bc
000001d0: e753 543d 1212 4cba a48c 5cbc c196 743c
000001e0: 3d75 0e3d 6b01 e5bc f0ec f73b eae7 c83b
000001f0: 35c8 84bb d98f c73c c896 90bc b043 00ba
00000200: a3ec 113c 6ee9 183a 9539 7f3c 41c1 b53b
00000210: 82c3 77bb 0d17 36bc 926e d23b 82d4 863c
00000220: 10f2 573a 8725 8f3b 4088 c73c fbbb b4bb
00000230: 5d97 e7ba e2ef e03c 7d08 c4bc 3962 f3ba
00000240: a128 713c aa4b 043c 9b2c aebc 7021 a5bc
00000250: 8cf0 d5bb c7c8 a3bc 335c f03a 4b25 ad3c
00000260: 3eee 3cbc 8f70 8ebb eb0c 16bc fc8c cfbc
00000270: 348c c1bb 23b1 6b3c f437 aebb f6e5 08bc
00000280: a470 26bd 3d31 173b ed0a 00bb 5d11 983c
00000290: 3775 dabc 7024 96bc d5cd 55bb 1b86 4d3b
000002a0: 06e5 f5ba 1462 03bd a10f ee3b 628f 1bbd
000002b0: f74a 24bc 4c3d fe3b f0d8 863c 8988 ef3c
000002c0: f44f 333c efed 473d edf7 1c3d 0575 69bb
000002d0: 92c1 b5bb 67d9 32bb 8dc0 af3a b9c7 9c3c
000002e0: 9d3a 0d3d 307a 90bc 49e9 1ebd c4c8 bd3b
000002f0: bdb7 a83c e2fe 183c 86d6 a4bb b9a1 3abc
00000300: 25c4 50bc c525 993c 1d36 fdbb 6693 fabc
00000310: 0293 99ba 9912 cd3c 7e24 373c 435d 743c
00000320: 622a 13bc 0e36 c4ba 4979 233b 01ee c83c
00000330: 4218 fe3b 7bd6 17bb 8e10 02bc 0e32 3cbb
00000340: 2bbf 593c 3245 39bc 63e2 9cbc 9d5a 333d
00000350: 77e9 9d3a e48d d23b 6216 9d3c 5e3e 8f3c
00000360: d04f 64bd 138a 793c 07fa 8e3c 996e d7bc
00000370: 7c70 e53c ee09 773c 9b4e c3bb 1900 2abc
00000380: 4d19 a7bc 9bc1 80bd e9aa 86bb 7513 cdbb
00000390: 38d3 b43c f520 393c 5f06 8c3c 8d47 17bd
000003a0: a9eb 5d3c cf15 133c 8b5e af3b 2adf dcba
000003b0: c782 b4bc f50e febb 267b 573d f5ec 423b
000003c0: 20a5 b53b 5bbe ce3c b8d0 eb3c 8559 38bc
000003d0: 95f2 623c 6ab9 cc3b ca32 ef3b 6b04 703b
000003e0: eec5 64bc 7836 05bd 3bba 533c b471 1bbc
000003f0: 1e4f ddbc aa56 5abc d03e ca3c bd30 233d
0.00227275 -0.016116941 0.030595485 -0.027878365 0.0067757145 0.022211177 -0.0046375818 0.02206294
-0.024262458 -0.009527452 0.009957473 0.0018445881 0.0023447315 -0.006885742 -0.0088711325 -0.027173428
-0.04312838 0.044294912 0.0031441518 -0.019765634 -0.041113596 0.05261933 0.026144885 -0.009692724
0.0005507215 0.007817269 -0.029333781 -0.0007739811 0.011565949 -0.0062318454 0.011421712 0.014683242
0.029755987 -0.0013907836 -0.017402468 0.016115613 0.003595042 -0.0040394897 -0.0003825666 0.010389883
0.010257288 0.009150555 -0.022746474 -0.02603852 -0.013103835 0.0032210087 -0.0133204935 0.019082874
0.010892269 -0.026195304 0.015703153 0.014056994 0.0020111108 0.0020060048 0.023876263 0.049412694
-0.023944099 0.009604273 0.031843677 -0.0042326315 -0.015481881 0.020708736 -0.025095211 0.046444286
0.017576268 0.0064758216 -0.021199347 -0.009107902 -0.020422963 -0.0036283396 0.021135407 0.0045430595
0.02701277 0.007998773 -0.021500487 -0.022596266 -0.022348251 0.00063493144 -0.003950755 0.015183383
-0.018650793 0.01081129 -0.002213948 0.006712233 -0.0026780143 0.004388002 0.028684074 0.020531654
0.0136417 -0.007820934 -0.021530263 -0.008424604 0.04598701 0.0006881175 -0.010335756 -0.029525518
-0.03626382 -0.0068997336 0.034938797 0.034014773 0.01362367 0.0071151066 -0.00672627 -0.012966966
0.000663597 0.029464085 -0.013968367 0.040500592 0.031048324 0.003099979 0.017244792 0.020747848
0.015385611 0.0044283005 -0.01624288 -0.02222477 0.051837828 -0.0007784675 -0.013461266 0.014928521
0.034779776 -0.027954778 0.007566087 0.006131162 -0.004052187 0.024360584 -0.017650023 -0.0004892899
0.008906516 0.00058331236 0.0155776935 0.0055467193 -0.003780574 -0.011113894 0.0064218724 0.016458753
0.0008237669 0.0043684873 0.024356961 -0.005515573 -0.0017669011 0.027458135 -0.023929829 -0.0018568701
0.014719159 0.00807468 -0.021261504 -0.020157546 -0.0065289196 -0.019993199 0.0018338024 0.021135947
-0.011531411 -0.004346914 -0.009158353 -0.025335781 -0.005906606 0.014385494 -0.0053167287 -0.008355608
-0.040634766 0.002307012 -0.0019537762 0.018562967 -0.02666722 -0.018327922 -0.0032623906 0.003136045
-0.0018760271 -0.032075956 0.0072650467 -0.037978537 -0.010027639 0.007758772 0.016460866 0.02923991
0.010944355 0.048810896 0.038322378 -0.0035622728 -0.005546757 -0.0027290226 0.0013408825 0.019138204
0.034479726 -0.017636389 -0.038796697 0.0057917554 0.020595426 0.009338113 -0.005030456 -0.011391097
-0.012742077 0.018694768 -0.007727398 -0.030587863 -0.0011716785 0.025033282 0.011178134 0.014914813
-0.008982273 -0.0014969723 0.0024944118 0.024527552 0.0077543566 -0.0023168612 -0.007938517 -0.0028716358
0.013290207 -0.011308001 -0.019150918 0.043787587 0.0012047727 0.006425606 0.019175712 0.017485794
-0.055740178 0.015230673 0.017453207 -0.026297854 0.028007738 0.015078051 -0.0059602982 -0.010376
-0.020397807 -0.06286927 -0.0041097295 -0.006258423 0.022073373 0.0112993615 0.017092882 -0.03693347
0.013544955 0.008977368 0.0053518466 -0.0016851176 -0.022035016 -0.007753248 0.052607678 0.0029743288
0.005543366 0.025237253 0.028786048 -0.011251812 0.013851781 0.006247689 0.0072997557 0.0036623727
-0.013963206 -0.03252265 0.012922819 -0.009487558 -0.027015265 -0.013326326 0.024688154 0.039841402

transformer_encoder.layers.0.self_attn.in_proj_weight f4 [384, 128]
00000000: 7382 8fbd 2146 8dbd fe32 a7bc 66c7 da3d
00000010: f4b7 31bd 89d1 c4bc e6e9 5dbd d3e3 fabc
00000020: d5d8 be3d 028f 893b 1376 59bd f5c3 10bd
00000030: 9d03 2dbd 5b4b 7abd 7594 4ebd ec82 853d
00000040: 5bd3 ae3c 7556 51bd f5c2 88bd 792e 8d3c
00000050: af6b 8b3c cd4a 083e a42c 1ebc f6f9 16bd
00000060: f12b ad3d 0e10 e23d 3417 76bd 2844 643d
00000070: 92ab ec3d eb75 babd 40c0 dc3c eba2 ed3b
00000080: 1f13 ae3d dccf cbbd 731b b03d 1045 923d
00000090: 033e 98bd 1ab3 873d 479c c23c db13 753d
000000a0: 2094 42bc 1949 20bd 638e 33bd e92b f53d
000000b0: d9fd 8ebd 5761 89bd 8832 723d d782 493d
000000c0: 135d c6bd 72d8 463d c3b7 95bd f869 803c
000000d0: 12fe 863d 352b 863d 52f2 c3bd 03ed 8c3d
000000e0: dec7 b4bd b618 62bd 1c81 d73d c43f d0bd
000000f0: 3b5d 333d 8307 debd d26d 97bd 762f 443d
00000100: ac38 95bc f669 1d3b 54b5 00bc 343c 1e3d
00000110: fa8a 353d 6c10 fa3d 988e 07bd 6a5f 61bd
00000120: e4d4 71b8 a615 943c 48eb c03d 1630 353d
00000130: de68 a5bd b500 22bd d458 78bd 0a94 c13d
00000140: 5b73 07bd 5b24 30bd b324 b9b8 30e2 533b
00000150: 7231 3abc 4f57 ffbd 563f b2bd e50f 46bd
00000160: 96d1 cd3c 68a3 603c e7cd 8bbd 696a 413d
00000170: 7443 d2bc 6999 1fbd 87d0 cfbc 324f 6e3c
00000180: 0d40 e93b 2aab 513d ccfb fe3c 3446 5a3d
00000190: cb7a d0bc b388 ddbc 5ab4 923d 38af 8cbd
000001a0: 10c9 c8bd 7f4d a53d c435 16bd 18f0 343d
000001b0: 2db9 9dbd dbe7 b5bd 6f89 01be ae34 983d
000001c0: 9b38 cabd 8518 473c 9dfa 803d b69e 8dbd
000001d0: dc65 5abd d2ad d4bd c694 02bc 423a 8a3d
000001e0: 7e05 d13d 6b02 04bb b6b2 a43d 6223 76bd
000001f0: 2d2a 3dbd 3478 9e3d 5ff3 d83d 0cb4 90bd
00000200: f8f4 af3d a778 153d 6be4 3e3c 6165 a03c
00000210: cd64 55bd 21e4 0fbd 069e 053e c90d 40bd
00000220: 8be7 b13d 2f24 03bd 40fa 20bd 570f b9bd
00000230: 4874 1c3d 6e4b bebd da94 dcbd f21b ac3d
00000240: 7804 a2bb 5aec 523c 96d8 873c 7439 d4bd
00000250: a692 07bd 6def 2ebd a1da cc3d 032f 0fbd
00000260: 2cf1 853c 2693 953d 7959 743b 211f b63d
00000270: 40f7 febc b583 54bd e105 8e3d a9a6 2cbe
00000280: 829f 06ba 9e2e b03d f3a1 433c 9fac 7abd
00000290: c53d d53d 4f9d dc3b 61b6 93bd 45dd 8a3b
000002a0: c4a6 e63c ed60 d43b 3071 02be b24c 0abe
000002b0: bdb6 e0bc 5971 96bd 3235 dcbd 2952 c2bd
000002c0: 418b a83d 8ce9 c33d 0221 cd3b 19d6 f8bd
000002d0: 6309 2b3d 6398 4ebd 7052 38bd 5e0e 203d
000002e0: 2916 c03d 3f3a edbd cb3d f8bc 30b2 543d
000002f0: 2825 57bd 5c42 f93d 04c1 34bd bb5f 853d
00000300: 10dc e03b 610c 6abd b0cb 5a3d ae05 d6bd
00000310: 0a32 68bd 66c4 973c 1305 e73d 4138 9ebd
00000320: bbcc f63b 686e cfbd 080d 47bd 0194 913d
00000330: ef78 7d3d 25f7 9c3d a419 57bd 04af 51bd
00000340: 9714 13bc 3365 413d 34dc 1b3d 89d2 2b3d
00000350: b988 d8bd fe4c 17bd b51d c9bc 90a4 c7bc
00000360: ef4e 953d 3074 b63d a3c6 d83d f7ae 36bd
00000370: 9133 363c 6c24 853d 16a7 3bbd 6aa1 623d
00000380: b6c5 ef3c 9e5a bebd aba9 e4bc 4144 393d
00000390: ae01 f43d 453e e9bd 35ae d53d 3bac 9dbc
000003a0: 41f5 6dbc 5e83 f7bc 8306 f8bd 9bf5 06bd
000003b0: 9266 5e3d 5266 edbc 07fb 83bd 1683 2bbd
000003c0: b07f e23c a88d 28bd f43d 43bc 0ef2 01bc
000003d0: 880b 97bd 0b27 633d 395e b13d 4516 ccbd
000003e0: 271d 773d b108 07be a01b d13d de08 49bc
000003f0: ff57 833d 4dfb b93c 4d0d f4bc d576 e63d
-0.07007303 -0.06898142 -0.020410057 0.106825635 -0.043388322 -0.024025695 -0.05417814 -0.030626213
0.09318701 0.004197956 -0.05309112 -0.03534313 -0.042239774 -0.06110702 -0.05043455 0.06519112
0.021341017 -0.051107842 -0.0667781 0.017234074 0.017019121 0.13309784 -0.009654198 -0.036859475
0.08455647 0.110382184 -0.060080722 0.05572906 0.11556162 -0.09104522 0.02694714 0.0072520874
0.08499741 -0.099517554 0.085989855 0.07142079 -0.07433703 0.06625958 0.02375616 0.05983339
-0.011876136 -0.03913221 -0.043836962 0.11971266 -0.06982011 -0.06708019 0.05913022 0.049197044
-0.09685721 0.048546262 -0.073104404 0.01567553 0.06591429 0.0655121 -0.09567703 0.06881144
-0.08827184 -0.055199347 0.105226725 -0.10168412 0.043790083 -0.108412765 -0.073939934 0.047896825
-0.0182155 0.0024019456 -0.007855732 0.038631633 0.04432199 0.122101635 -0.033094972 -0.055022635
-5.7657147e-05 0.018076729 0.09419876 0.04423531 -0.080766425 -0.039551456 -0.060631588 0.09452064
-0.033068996 -0.04300342 -8.828323e-05 0.0032330863 -0.011364328 -0.12467825 -0.087034866 -0.048355002
0.025124352 0.013710834 -0.06826382 0.04722062 -0.02566693 -0.038964663 -0.025367988 0.014545249
0.007118231 0.051188625 0.031125925 0.053289607 -0.025449177 -0.027042722 0.071633056 -0.06869358
-0.09803975 0.08071422 -0.03667237 0.044174284 -0.07701335 -0.088821135 -0.12650083 0.07431923
-0.09874078 0.012151842 0.06297801 -0.06915037 -0.053319797 -0.10384716 -0.007970041 0.06749393
0.10206126 -0.0020143043 0.08041899 -0.060092337 -0.0461828 0.07737771 0.10593294 -0.07065591
0.08591646 0.036492016 0.011651139 0.019579591 -0.052098084 -0.03512967 0.13048562 -0.046888147
0.086867414 -0.03201693 -0.039301157 -0.09036129 0.038196832 -0.09291731 -0.10770579 0.08403768
-0.0049443804 0.012873733 0.016582768 -0.10362521 -0.03309884 -0.042708803 0.10002638 -0.034956943
0.016350351 0.07303457 0.0037284775 0.08892656 -0.031123757 -0.051883418 0.06934715 -0.16860451
-0.0005135463 0.086026415 0.011940467 -0.06119978 0.10412172 0.00673262 -0.072125204 0.004237803
0.028155692 0.006481281 -0.1273849 -0.1350582 -0.027430886 -0.07345838 -0.10752334 -0.09488327
0.082296856 0.0956603 0.0062600384 -0.12150211 0.041757 -0.050438296 -0.045000494 0.0390762
0.09379227 -0.11583375 -0.030302903 0.051927745 -0.05252567 0.1217086 -0.044129387 0.065124
0.006862171 -0.05714071 0.053416908 -0.10450302 -0.056688346 0.018526267 0.11280265 -0.07725573
0.00753173 -0.1012848 -0.048596412 0.07108308 0.06188291 0.076643266 -0.052514687 -0.0511923
-0.008977077 0.04721565 0.0380518 0.04194883 -0.10572953 -0.03693866 -0.024550298 -0.024370462
0.07290446 0.0890888 0.10584762 -0.044600453 0.011120693 0.065010875 -0.045813642 0.055329718
0.02926908 -0.092946276 -0.027912935 0.045231108 0.11914383 -0.1138883 0.10433618 -0.019247165
-0.014523805 -0.030214008 -0.12110617 -0.03294907 0.054297037 -0.028979454 -0.06444364 -0.04187306
0.027648777 -0.04115072 -0.011916626 -0.0079312455 -0.07375246 0.055457156 0.0866055 -0.09965185
0.060330536 -0.1318691 0.10210347 -0.0122701805 0.06413268 0.022702837 -0.029791499 0.11253134

transformer_encoder.layers.0.self_attn.in_proj_bias f4 [384]
00000000: 0ea9 5a3c 4696 47bc bf88 f93c 17cc e03c
00000010: 11ec f33b ff3c a53c 267b 183c 9fe5 b2bc
00000020: 148d bc3c c133 9bbc a98a a0bc 4965 443c
00000030: 803b 043d 9f7c df3c 01a2 87bc db35 d83c
00000040: e0fb 023d 8aff 8d3c efd7 dbbc 1329 f03c
00000050: cb89 293d b5c3 63bc fe44 2b3a 8fa6 303d
00000060: 62ac 0a3d 05e7 18bd c409 ab3c 21cb a5bc
00000070: f05f 1b3d d52b 41bd 5810 35bc a2c5 96bb
00000080: b374 423c 0321 01bd d5c3 44bd e17e 423c
00000090: 8b37 27bc 0aa9 753b 4506 81bd 618c 03bd
000000a0: 2ead 183c 6426 9f3c fe25 90bb 7559 22bc
000000b0: a0dd 7ebb 2b25 d8bc fa40 97bc a91e 99bc
000000c0: 2f7d f1bc 1531 9ebc d90e a83b 1ecc 49bd
000000d0: 8d16 9d3c 484a b7bc b270 0f3d 1112 b83c
000000e0: da2b 13bd f701 923c edb1 d43a 05af 713c
000000f0: 2fd4 01bc 340f 1fbd d26a 453c 02b4 0bbd
00000100: ef78 d93c 7dce b8bc c50a 05bd 608a 793c
00000110: bf1a f03c 50a2 b83c 2178 203c 5df2 fcbc
00000120: f2d2 a3bc ee40 803c c95e 5d3c 0cf4 89bc
00000130: 2740 acbc d72e e03c 1708 7e3c 96b1 c7bb
00000140: 1409 ddbc 0ae9 33bd 858c a2bc d717 5f3d
00000150: 046a d1bc c5ae ddbc d984 c3bc b4bd 15bd
00000160: 5df6 503d d7b7 3b3d fb37 e7bc ba44 113c
00000170: c3d0 cf3c 5f82 6f3c 4f7b 2d3c 8b3a 0f3d
00000180: 0a4f acbc 3346 b63c 5ea9 123c 7822 c1bc
00000190: a4e1 0f3c 7344 e73b 12b8 fe3c b458 57bd
000001a0: 05e4 d23c 68a1 73bb 0d0f ffbc 16b4 e23c
000001b0: 21e5 bdbc d97d 9b3b 741d 523d 4024 c3ba
000001c0: c160 13bd 2b2d e83b ba72 0c3d 04d1 503d
000001d0: 1a69 553c 176e d7bc f12f 26bd 9dfd 0e3d
000001e0: 3195 2abd d74c 2e3d b2c7 26bd b08c 45bd
000001f0: 0182 063d 2f6a c83a bad5 cd3c db0f 45bd
00000200: 1f12 a3b8 d770 5537 594a 0539 32ab a138
00000210: 5f46 2eb8 dd91 8638 77bf d536 a8dc 9bb8
00000220: 9178 5bb6 ea5e 7b38 1779 e437 7b55 60b6
00000230: dab8 dcb8 286d bab7 be1c adb6 4cb7 25b8
00000240: a435 d2b8 46f4 9cb6 97f1 b538 2344 74b8
00000250: c702 a536 3d4d a8b8 2d0a a138 5c38 0139
00000260: 6794 afb7 4173 ad39 6393 a6b8 1c5d 04b8
00000270: 2999 25b9 ec2e 9a39 0065 bd38 510d ad38
00000280: 9532 13b8 d0bf 7eb8 323b 2737 7b47 3ab8
00000290: b1fe 2537 1b8c dc38 070f 0b39 6a7a 2a38
000002a0: e575 3938 f7a7 9b38 24e3 04b8 16cd dc37
000002b0: 6382 ba38 8850 a937 c436 97b8 b9f7 3338
000002c0: 943c 8938 e7cb 3938 76ee fdb7 bebd a4b8
000002d0: bc64 cdb8 09c7 f2b8 1643 5138 85af 9a38
000002e0: 2f62 2538 448b e7b7 2061 2538 b844 a637
000002f0: 3aae 3638 a036 1038 74b6 ff36 5872 f539
00000300: dae4 5db9 aa22 5939 40c6 3838 667e 69b8
00000310: e7e9 3fb7 5704 2a38 4961 2db8 d768 56b7
00000320: deb4 2739 4e43 04b9 eea6 7bb8 3ed6 31b7
00000330: b2b3 2539 b084 1538 048b 82b8 45a2 5cb7
00000340: 4418 a339 356e df38 c778 4438 8006 8db9
00000350: f91e 1739 407f cc38 a272 b938 6cdf 5439
00000360: 5956 98b8 e7e1 9bb8 689d d138 5d90 62b8
00000370: 8b55 19b9 64ce b137 4a02 e9b8 e057 80b8
00000380: 946b 1039 eb7d ed36 7ffe ec36 7fee 3a38
00000390: a3d9 fcb7 158e 27b8 f4da 2f37 fad0 0b39
000003a0: 7bab f2b8 7ca0 2838 480c 0f39 d6b9 a8b8
000003b0: ec67 9b37 766a 2cb8 ac94 dbb8 6e94 b7b6
000003c0: 1b37 9138 58c1 b9b8 4807 62b8 1971 a8b9
000003d0: 903c 17b8 e3b1 3a37 0bd9 7439 ba5e 0fb9
000003e0: e4f4 8438 eaad 27b7 ae5c b937 570e 0539
000003f0: d72f 4838 f440 aa37 1b50 5a38 008c 3738
0.01334597 -0.012181824 0.030460713 0.027441068 0.007443913 0.020170687 0.009306705 -0.021838007
0.02301649 -0.018945577 -0.019597368 0.011987039 0.032283306 0.027281104 -0.016556742 0.026392868
0.031978488 0.017333765 -0.026836364 0.02931646 0.041391175 -0.013901641 0.0006533413 0.043127593
0.033855803 -0.037329692 0.02087868 -0.020238461 0.03793329 -0.047160942 -0.01105126 -0.0046011964
0.011868644 -0.031525623 -0.048038322 0.011871071 -0.010206114 0.0037484788 -0.06300024 -0.032116298
0.009318633 0.019427486 -0.0043990603 -0.0099090235 -0.0038889423 -0.02638491 -0.0184636 -0.018691378
-0.029478638 -0.019310514 0.005128723 -0.049266927 0.019175792 -0.022374287 0.035019584 0.022469552
-0.035930492 0.017823203 0.0016227342 0.014751201 -0.007924124 -0.03883286 0.012049394 -0.034107216
0.026546923 -0.022559399 -0.032480974 0.015230745 0.029309629 0.022538334 0.009794266 -0.030877287
-0.019998048 0.01565596 0.013511368 -0.016840003 -0.021026684 0.027366085 0.015504858 -0.006094168
-0.026981868 -0.043923415 -0.019842396 0.054466095 -0.025563248 -0.027060876 -0.023867058 -0.036557868
0.0510162 0.04582962 -0.028224936 0.008866483 0.0253681 0.014618485 0.010588481 0.03496794
-0.021033783 0.02225027 0.008951513 -0.023576006 0.008781824 0.0070577203 0.031093631 -0.05257483
0.025743494 -0.0037175063 -0.031135106 0.027673762 -0.023180546 0.004745227 0.05129762 -0.0014888123
-0.035980944 0.0070854626 0.0342891 0.050980583 0.013025546 -0.026297612 -0.040573064 0.034909833
-0.041646186 0.04255375 -0.040717788 -0.048229873 0.032838825 0.0015290434 0.025126327 -0.048110824
-7.775821e-05 1.2722062e-05 0.00012711565 7.708966e-05 -4.155037e-05 6.416787e-05 6.370184e-06 -7.4320764e-05
-3.2703722e-06 5.993146e-05 2.7236105e-05 -3.3428357e-06 -0.00010524849 -2.2223758e-05 -5.159148e-06 -3.9509774e-05
-0.00010023572 -4.6775995e-06 8.675752e-05 -5.823759e-05 4.9177065e-06 -8.025251e-05 7.6789736e-05 0.00012323394
-2.093073e-05 0.00033083002 -7.94295e-05 -3.1557967e-05 -0.00015792683 0.00029408128 9.031035e-05 8.251763e-05
-3.509464e-05 -6.073696e-05 9.967758e-06 -4.4412427e-05 9.894066e-06 0.00010516514 0.00013261671 4.0645165e-05
4.4217235e-05 7.422262e-05 -3.1682794e-05 2.6321544e-05 8.8934576e-05 2.018387e-05 -7.210442e-05 4.2907635e-05
6.5439526e-05 4.4297336e-05 -3.0270992e-05 -7.8554716e-05 -9.793925e-05 -0.000115765324 4.989196e-05 7.375985e-05
3.9430506e-05 -2.7602196e-05 3.942952e-05 1.9820742e-05 4.3554443e-05 3.438315e-05 7.6208325e-06 0.00046815234
-0.00021161456 0.00020707646 4.4053653e-05 -5.5669247e-05 -1.1438947e-05 4.05352e-05 -4.1337018e-05 -1.2779804e-05
0.0001599374 -0.00012613574 -5.999853e-05 -1.0599904e-05 0.00015802568 3.5647943e-05 -6.224777e-05 -1.3150803e-05
0.00031107862 0.00010653996 4.6842524e-05 -0.0002689846 0.0001441202 9.75118e-05 8.8428395e-05 0.00020301127
-7.264008e-05 -7.4330535e-05 9.995216e-05 -5.4017048e-05 -0.00014623084 2.1196152e-05 -0.00011110732 -6.1198836e-05
0.00013772986 7.077809e-06 7.0629753e-06 4.4567973e-05 -3.0142086e-05 -3.9948227e-05 1.0481792e-05 0.00013333923
-0.000115714 4.0203784e-05 0.00013642118 -8.045479e-05 1.8525832e-05 -4.1107145e-05 -0.00010470426 -5.4711045e-06
6.924403e-05 -8.8575005e-05 -5.388938e-05 -0.0003212772 -3.605761e-05 1.1127881e-05 0.00023350508 -0.00013672831
6.339865e-05 -9.994468e-06 2.2096876e-05 0.0001268921 4.772827e-05 2.0295825e-05 5.2049854e-05 4.3760985e-05

transformer_encoder.layers.0.self_attn.out_proj.weight f4 [128, 128]
00000000: 6343 56bd 4bb7 5d3d 8a56 543d 4456 9cbd
00000010: 97cd 8bbd 8737 d43c 5c9e 4d3d a5cf fb3a
00000020: 97a6 9dbb c6cc 74bd 10ff 4739 0156 563d
00000030: 5751 8bbd 3a30 803d dbf2 5c3d 0d86 073d
00000040: 202c ab3d 92da 6abd d546 acbd 77be 1a3d
00000050: 0ff0 d53b 0808 063d e904 28bc 3d80 86bd
00000060: bc21 ae3d 4b3a 003d b754 9bbb af3f 123d
00000070: e823 99bd 5ec0 9fbd c0ea 6a3d c354 403d
00000080: afc1 7a3d b5ea 5cbb 8948 653a 2675 06bb
00000090: 8a46 a4bd 70cc 51bd 4bc8 ba3c 573a 113d
000000a0: c63f 3c3d d4e4 a9bc 3e81 353d 2f29 833b
000000b0: 1b7a b0bd 9fb7 873d 942d 52bc 333e 9c3d
000000c0: d8ef 923d bbf4 6b3d 3b7d adbb c854 10bd
000000d0: 3ab6 8b3d 5d3b 87bd 67e4 ca3c a4e3 a13d
000000e0: 7844 c23d e2e4 a63d 52e7 96bc d16b 723d
000000f0: 4fae 023c 33aa 19bd 4e54 a1bd 3437 af3c
00000100: d4b0 313d dc1c a0bd a756 6a3d 44fa a43d
00000110: 9543 a2bd 0462 7dbd d8f6 963c 81d0 693d
00000120: be1e 81bd 104b a1bd 1010 28bd d168 69bd
00000130: 0141 a8bd 9f09 ba3d bb2e b7bc 4f96 b0bc
00000140: 989d 303b 8c24 963d fd1a cbbc bdab 6bbd
00000150: 6646 ac3d d8b9 96bc e7d5 6ebd 8171 e53c
00000160: bf16 b4bd 18ad 81bd 7abf 5b3d 40d7 20bd
00000170: ecdb 873d 4489 963d 022f 9cbb 01fc 3ebd
00000180: 6a19 8f3d be90 83bc 4a36 233d dcef 183d
00000190: 53f3 a5bd dcd6 283d a233 bc3c d5a6 e4bc
000001a0: c6d9 793d 63ff 42bb 4d7b 453d 1e44 14bd
000001b0: 5cdd b0bd dd10 b23d 7dd0 103d 950f 8dbc
000001c0: de22 763d b13e ac3c 22b4 6c3d a891 efbb
000001d0: 5939 b53c a399 97bc a626 383a e009 473a
000001e0: af8f 753d 9b4c 5bbc 03c7 7a3c a3a9 ac39
000001f0: b97d 1ebd 088e 0ebd 29dc 63bd 822a 2c3d
00000200: a2f3 423d 953d b5bd c62a e13b e15f fbbb
00000210: bcff 8c3d 5e9b 3ebd d33b 953d 5835 95bc
00000220: 4432 0f3d 4b18 4cbd e107 b03d 0c3b 213c
00000230: 2a5d 9dbd 100f 97bc 1deb ab3c 4045 1c3d
00000240: c6f3 14bc 9386 453d 6749 693d 5312 9d3c
00000250: 248e fdbc dc45 4fbd 36d6 bf3c 6fd5 9ebd
00000260: b229 b33d 518c 56bc 46c2 66bc 569c 583d
00000270: fcce a6bd 6108 78b9 46bc 793d 0c56 a3bd
00000280: ec01 7e3d 30e3 d1bc 381b 303b c1e9 7abb
00000290: 5985 74bc 4d53 4abd 73bf f33c 700b aa3d
000002a0: 1aa6 abbc 2d76 ea3c 92b5 053d 246b 693d
000002b0: f1a2 b73c 9e2e 0a3d 7bcc 80bc 66ff c7bb
000002c0: caa1 d7bb d4e6 21bc 461f c7bc cea5 a83d
000002d0: 2426 9dbd af34 4a3d 8118 4cbd 8946 b2bd
000002e0: 45ce 1a3c dfdf b7bb a52a 2e3b fb6f 88bc
000002f0: 928b 4bbc 96a5 08bd c509 2a3d 04a4 8cbd
00000300: 3d2f 0cbd 55a9 223d 63c3 083d 04ab 22bb
00000310: f855 aa3d 25cb 25bd 4517 b1bc 170c 19bd
00000320: 72ec a3bc 226d 4dbb 1eca 423d 610e 3c3d
00000330: 29c0 683d 7247 323d 4c04 3abc f806 ab3d
00000340: 27c6 6f3d 4900 b43d 49b2 a23d ef15 db3c
00000350: 37a0 173d c29c 1c3d 1549 ab3d d013 493c
00000360: d26d 98bb 2eab 4f3c fea9 a7bc 2624 a2bc
00000370: f059 a3bc 90dd 2a3d 4052 da37 994e 503d
00000380: 80db a53d 122f 3f3d 6ea9 4a3d c0ed 3f3d
00000390: 6076 6e3d 7731 83bd dc5c 61bd 034c 1abd
000003a0: 8527 58bc 5ec7 6ebd d56b 573d 7972 8cbd
000003b0: d791 613d b725 3c3d 1375 98bd dc41 763d
000003c0: 0a88 443d 41e5 a23d 18cf 8bbd 3503 9aba
000003d0: 4846 d33c d702 363c f054 e83b a73d 8ebd
000003e0: 668d 8b3d f81a 9dbc fd97 87bd bf57 debb
000003f0: 10ce 633d 4802 68bb 9d70 b0bd f086 973d
-0.05231036 0.05412988 0.051840343 -0.07633641 -0.068263225 0.025905384 0.05019985 0.0019211663
-0.004811119 -0.0597656 0.00019073137 0.052328113 -0.06802624 0.062591985 0.053942543 0.033086825
0.083580256 -0.05733735 -0.08411948 0.037779298 0.0065288614 0.032722503 -0.010255077 -0.06567428
0.08502528 0.031305593 -0.0047403234 0.035705265 -0.07477552 -0.07800363 0.05735278 0.046955835
0.061219867 -0.0033709232 0.00087464653 -0.0020516603 -0.08021267 -0.051220357 0.022800585 0.035456028
0.045959257 -0.020738997 0.044312708 0.004002712 -0.0861704 0.0662682 -0.0128282495 0.07629051
0.07174653 0.05760644 -0.0052944697 -0.035237104 0.06821866 -0.066031195 0.024767114 0.07904747
0.09485716 0.08149125 -0.018420849 0.059184853 0.007976129 -0.03751583 -0.07877408 0.021388628
0.043381527 -0.078180045 0.057211544 0.08055547 -0.079230465 -0.061861053 0.018428251 0.05708361
-0.06304692 -0.07875645 -0.041030943 -0.056984726 -0.082155235 0.09083866 -0.02236115 -0.021556048
0.0026949402 0.073311895 -0.024793142 -0.05753683 0.08411865 -0.018399164 -0.058309462 0.028008224
-0.08793401 -0.06331843 0.053649403 -0.03926778 0.06633744 0.073504 -0.004766346 -0.04662705
0.06987269 -0.01606023 0.039846696 0.037338123 -0.08103051 0.04122053 0.02297384 -0.027911583
0.0609987 -0.0029754273 0.048213292 -0.036197774 -0.08635971 0.08694623 0.03535508 -0.017219344
0.060091846 0.021025987 0.057788976 -0.0073110647 0.022122072 -0.018505877 0.0007024802 0.0007592719
0.05995148 -0.013384963 0.015306237 0.00032932786 -0.038694117 -0.03480342 -0.055629883 0.042032726
0.047595628 -0.088496365 0.006871554 -0.0076713418 0.06884715 -0.04653489 0.07286801 -0.018213913
0.034960046 -0.049827855 0.08595253 0.009840738 -0.07683785 -0.0184398 0.020986134 0.03815198
-0.009091323 0.048224043 0.056954768 0.019173777 -0.030951567 -0.050603732 0.023417573 -0.07755553
0.08748187 -0.0130949775 -0.014084404 0.05288347 -0.08144948 -0.00023654244 0.060970567 -0.079753965
0.06201355 -0.025621027 0.0026871692 -0.00382863 -0.014924371 -0.049395848 0.029754376 0.08302963
-0.020953227 0.028620804 0.032643862 0.056986943 0.022416564 0.033735864 -0.015722504 -0.006103444
-0.006580566 -0.009881694 -0.024306905 0.0823475 -0.0767329 0.04936665 -0.049828056 -0.0870486
0.009448593 -0.0056114043 0.002657571 -0.016654959 -0.012423413 -0.03336104 0.041513223 -0.06867221
-0.034224737 0.03971227 0.03338946 -0.0024821172 0.083171785 -0.040476937 -0.021617541 -0.037365045
-0.020010207 -0.0031345566 0.047556035 0.04591215 0.056823883 0.043525167 -0.0113535635 0.083509386
0.058538582 0.08789117 0.079441614 0.026743857 0.037018027 0.038235433 0.08363549 0.01227279
-0.0046517635 0.01267509 -0.0204668 -0.019792628 -0.019940346 0.041715205 2.6025926e-05 0.050856207
0.08098507 0.04667575 0.049477987 0.046857595 0.05821836 -0.06405919 -0.0550202 -0.037670147
-0.013193016 -0.0582956 0.05259307 -0.068577714 0.055070724 0.045934405 -0.07444205 0.060121402
0.0479813 0.07953883 -0.068266094 -0.0011750223 0.025790349 0.0111090755 0.0070902035 -0.06945353
0.06814079 -0.019177899 -0.06620786 -0.0067853625 0.05561644 -0.003540175 -0.08615229 0.07398784

transformer_encoder.layers.0.self_attn.out_proj.bias f4 [128]
00000000: f133 a03a 5b5d 66ba 567d 1e39 8bdc a4bb
00000010: 0412 4dba d189 53ba 4db6 ce39 0843 03bb
00000020: 73d6 083c ab38 d23a 1fdf e0ba 47c0 313b
00000030: befc 9fbb b684 adba 6cd6 4e3b e145 e4b9
00000040: cae5 9dbb d2a2 05ba 92dd 38bb 9307 113c
00000050: a9be d9b8 b146 633b 4c80 1cbc efb3 9a3b
00000060: 399d a5bb c673 22bb afc5 963b 1ac7 9e3b
00000070: dba0 373b 2a47 b33b f548 ecbb d627 8939
00000080: b121 f3bb 6805 073b 88a9 303b be42 2439
00000090: 40f3 2bbb e590 88b9 de3b f5ba 3a36 bbbb
000000a0: 8f3b 2ebb 9cc5 be3a 2331 a63a af07 8bbb
000000b0: a5b0 afbb 285f 013a a3af 53ba fd73 28bb
000000c0: 2653 aabb 7985 5cb9 2da8 ed3b 1c18 9237
000000d0: 6951 5e3b 03a9 f2ba 9850 a13a 19a6 ecb9
000000e0: 6ade 0a3b 2c69 4dbb 5134 a0b9 b103 97bb
000000f0: 81a4 ad3a 47e5 803a 907a a9bb 913c 043b
00000100: 58ca 6cbb ba58 c23a 7617 cfb9 ae52 0dbb
00000110: 93c1 803b 4dfd 61bb 80a2 08ba b4d7 843a
00000120: bff1 1e3a 77d8 aab9 58d1 143b 2515 09bc
00000130: a0a6 67ba 6e19 adbb 8fd7 6c3b 13bc 863b
00000140: ac6e 95ba 45e6 debb 5bb9 b23b 1db8 5a3b
00000150: dad3 b1bb c708 adbb 7a4c 31bb 6b47 bcba
00000160: 63ea 69b9 6635 803b 5629 4f3b 9081 54bb
00000170: 1959 363a 20c8 06bb 4eec 063b 7687 0aba
00000180: 6d6c 5d3a a194 7dbb c27a 183b ed8e 7f3b
00000190: 8864 c6ba e0a5 adbb d424 cb3b 4c8c 403b
000001a0: f71a 2cbb f050 413b e2be 84ba 6d8d dbb9
000001b0: 2504 de3a 83a7 da3b 4a7d 233b 3d01 883a
000001c0: 1119 f6ba 3c93 853b 2a9b 14bb 11d6 233b
000001d0: 2d57 123b 8bfa d039 a42a 523b ce2c 863b
000001e0: a5c3 efba 9e61 efba 440e 373b 3c08 a2ba
000001f0: 2028 79bb 8e29 cabb 0a6c 363b d292 9b3a
0.0012222511 -0.0008787715 0.00015114745 -0.0050311736 -0.0007822814 -0.00080695475 0.00039427207 -0.0020028967
0.00835191 0.0016038617 -0.0017156339 0.0027122663 -0.004882424 -0.0013238403 0.003156091 -0.00043539613
-0.0048186528 -0.00050978095 -0.0028208238 0.0088519035 -0.000103828796 0.0034679587 -0.009552073 0.004721157
-0.005054143 -0.0024788245 0.0046012024 0.004845512 0.0028019461 0.00547113 -0.0072108456 0.00026160356
-0.007419788 0.0020602588 0.0026956517 0.00015665122 -0.0026237518 -0.00026047896 -0.0018709858 -0.0057132514
-0.0026585793 0.0014554742 0.0012679439 -0.0042428593 -0.005361634 0.0004935139 -0.0008075183 -0.00257039
-0.0051979003 -0.00021030557 0.007252714 1.7415783e-05 0.0033923036 -0.0018513504 0.0012307344 -0.0004513718
0.0021189698 -0.0031343205 -0.00030556557 -0.0046085943 0.0013247879 0.0009833955 -0.0051720813 0.0020177702
-0.0036131348 0.0014827468 -0.00039499596 -0.0021564174 0.003929326 -0.0034483254 -0.00052122027 0.0010135085
0.00060632447 -0.00032586206 0.0022707786 -0.008366858 -0.000883678 -0.0052825725 0.0036139225 0.0041117757
-0.0011400781 -0.0068023526 0.005454225 0.00333739 -0.005426866 -0.0052805874 -0.002705364 -0.0014364546
-0.00022307927 0.0039126156 0.0031610331 -0.0032425858 0.00069560256 -0.002056606 0.0020587626 -0.00052844675
0.00084466377 -0.0038693326 0.0023266529 0.0038995103 -0.0015136162 -0.005299315 0.0061994586 0.0029380498
-0.002626119 0.0029497705 -0.0010127688 -0.00041876305 0.0016938491 0.006672801 0.0024946504 0.0010376346
-0.0018775781 0.0040763896 -0.0022675493 0.002499942 0.0022329793 0.0003985952 0.0032068873 0.0040946966
-0.001829256 -0.0018263345 0.0027932087 -0.0012362073 -0.00380183 -0.0061695045 0.0027835392 0.0011869317

transformer_encoder.layers.0.linear1.weight f4 [512, 128]
00000000: 526c 483d 19da ae3d c943 ca3c 7843 2f3d
00000010: 3f49 a73c 70ee 573d 791a da3c 5521 68bc
00000020: b92f b2bd cd5e 503c 24e5 9ebd 3ab2 e2bb
00000030: 8dcb 9ebd 9e86 babc 6b9c 523d b09e ec3c
00000040: 6450 063d b0a6 b0bd 3322 843d 9ae9 b13d
00000050: 3603 c2bb 65b1 6abd 5257 8f3c 1c40 ef3c
00000060: 6923 e33c 63ee cebc 0afe 31bd d078 81bd
00000070: b3ae 5cbd 5ac5 343d 3677 223d 9d99 4c3d
00000080: 6d85 88bd 8697 bfbd 10cd 28bd 7bec 07bd
00000090: c547 09bd 15e7 3e3d 1f9d 9fbd a6e4 173d
000000a0: b690 83bb 6286 5f3d 05fb 973d 694b 57bd
000000b0: a90d 86bd 1646 913d cd3d b13c 5ac7 90bd
000000c0: a829 3dbd 9503 94bc a8f1 1d3d 4890 373d
000000d0: 4231 76bd 7be9 59bd 2701 8c3d 4685 ecbc
000000e0: cabf 1c3d 1609 b1bd 9ab5 b2bd a4a7 253d
000000f0: a9e5 b93d ef19 4abd 5f9d f2bc c20e 87bc
00000100: 3fec aebd 6fd1 043d c7ee b7bc 88b8 863d
00000110: ba7e f8bb eb4d 76bd 60fe 78bd 87cc 53bc
00000120: 94d3 1e3d 4788 8ebd ff42 87bd 4aba f93c
00000130: 2a63 51bd 330b 8cbd 78f2 b33d 78e4 e9bc
00000140: 151f fabc e351 533d a282 203d d134 953c
00000150: 81e1 9eba 7381 e6bc 77a6 84bd d01a 5e3d
00000160: f49d 66bd 36f8 1e3c 0ed5 093d 3534 a4bc
00000170: 19fc 023d 6ddc cf3b 99c7 33bd 1b66 5dbd
00000180: b2ff 523c 2ec5 dbbc b8a0 8abd c916 513b
00000190: bc6c a43d dc58 923d 2d0c 9dbd 6be8 393d
000001a0: 9096 863d f321 f9bc 8564 5b3a 2f59 c93c
000001b0: 0709 803d becb 48bd cfd8 3cbd bf0f 48bd
000001c0: 3f4d b53d 9b96 a13d d78c 4cbc 6e3f f4bc
000001d0: 3b47 bd3c 1f9d 0cbc 97ff 303d 5ca2 583d
000001e0: a69c 32bd 71d8 9e3d ae24 8e3d 642d 533c
000001f0: aec4 0c3d ffde 9abd fd4b 243c 67d4 7f3d
00000200: 7f3e c8bd 87c2 483d cb02 cf3b 9f13 823c
00000210: cb31 f9bc 8126 e6bc fc8a c53d 3a40 a3bd
00000220: 004c a03d 50b0 b4bd e7fb 9bbd ada1 40bd
00000230: d66c 763d ea19 abbd f527 413d b749 233b
00000240: 3987 6dbd 94b0 213d 2c71 763d 72ac 9d3c
00000250: edde ecb9 e02b dbbc 5f34 b23c 71ba 99bd
00000260: acdc 6d3d 1a3e 6c3d 4925 d33c c57b bf3d
00000270: fe39 723d 13db 7f3c 1376 e63c d75f 393d
00000280: 6490 c13a 0d1e cfbc 111b 5ebc d369 febc
00000290: 4276 9dbc 77bc 9c3d 5ec0 40bd e012 1a3d
000002a0: 3626 7c3b c8bd 403c 8e4d a43c 653a 7ebd
000002b0: 911e 5c3c 05fd 38bd ec01 37bd 0bf3 6c3d
000002c0: ba63 ee3c 5ee3 21bd 87d1 90bb f865 2a3d
000002d0: ab73 1fbd beda 89bd 0de3 863d e749 50bc
000002e0: 377f 423d dc8d 13bd 2354 1fbd 4eec c23b
000002f0: 2bbe aabc d9a8 813d 1c2c a23d a08a 1b3d
00000300: 6dbe a6bd 1cce 6bbd 80e0 123d 0661 9f3d
00000310: 816b 86bd 3fa4 8c3d 181a 82bd c955 0c3d
00000320: 81f6 983d 6e5e b2bd 1b03 183d 94a5 b6bd
00000330: 3243 f4bb 6265 81bd b295 5c3c e8b7 263a
00000340: dc98 67bd bf96 a33d baf3 703d f3b8 82bd
00000350: 4a91 acbd 3302 59bd 22cd 28bd e48a 233d
00000360: 5eda e43c d055 503d 0a15 8b3d 565b 27bd
00000370: 1d57 25bc 11df 5d3d fe42 26bd dd4a 77bc
00000380: 2a2f 853d 8bf3 9f3d 1b47 e33c 8e4c 0b3d
00000390: ed43 60bd 47a2 583d e7d1 04bd 4b90 093d
000003a0: f99d 843d 393a 8ebd c158 88bc 89d6 05bc
000003b0: 421c 403d a97b 27bd 86bd 96bc 3f4b a53c
000003c0: 7001 bd3d 4850 cabc 108c d6bc 3b82 ebbc
000003d0: e9dc 79bd 5bbb 0fbb a880 f0bb 05d3 843c
000003e0: 8c03 42bd 3419 78bc 0d93 51bd 2223 b9bc
000003f0: cf7b 32bd 7465 7e3c 5463 13bc cfc1 f6bc
0.048931427 0.085376926 0.024690526 0.042788953 0.020420669 0.052717626 0.026623951 -0.014168103
-0.087005086 0.012717915 -0.07758549 -0.006918219 -0.07753668 -0.022769269 0.051418703 0.028884262
0.03279151 -0.08625543 0.064518355 0.08687134 -0.005920793 -0.057298083 0.017497692 0.029205374
0.027726846 -0.025260156 -0.04345516 -0.06321871 -0.053877544 0.04413352 0.03966447 0.049951185
-0.06666074 -0.09355073 -0.041211188 -0.03318451 -0.03351571 0.046607096 -0.0779364 0.03708329
-0.0040150536 0.054571517 0.07420925 -0.05256215 -0.06545574 0.07093446 0.021635914 -0.07069273
-0.046182305 -0.018068114 0.03856054 0.04481533 -0.06010557 -0.05320118 0.06836157 -0.028872143
0.03826884 -0.08644311 -0.08726044 0.040443078 0.09077007 -0.04934114 -0.029616056 -0.01648653
-0.08541154 0.032426294 -0.022452725 0.06578165 -0.0075834664 -0.060132902 -0.060789466 -0.012927181
0.038775995 -0.069595866 -0.06604575 0.030484337 -0.05111996 -0.068380736 0.087864816 -0.028551325
-0.0305324 0.051591765 0.03918708 0.018213661 -0.0012121649 -0.028137898 -0.06477063 0.05422479
-0.05630298 0.009702733 0.03365045 -0.020044426 0.0319787 0.0063434155 -0.043891523 -0.054052453
0.012878345 -0.026827421 -0.06768936 0.003190445 0.08028552 0.07145855 -0.07668338 0.045387667
0.06571686 -0.030411696 0.00083691656 0.024578659 0.06251722 -0.04902243 -0.046105202 -0.04884314
0.08852624 0.07890054 -0.012484751 -0.029815402 0.023105254 -0.008582382 0.0432125 0.052889213
-0.043606423 0.07756127 0.0694059 0.01288924 0.034367256 -0.075620644 0.010027883 0.062458422
-0.09777545 0.04901364 0.0063174716 0.015878497 -0.030419251 -0.028094532 0.0964565 -0.079712346
0.07826996 -0.088226914 -0.07616406 -0.047029186 0.060162388 -0.08354552 0.047157247 0.0024915764
-0.057990286 0.03947504 0.060166523 0.019247267 -0.0004517952 -0.02675432 0.021753488 -0.07506264
0.058071777 0.057676412 0.025774615 0.09349779 0.059137337 0.015616196 0.028132474 0.045257416
0.0014767763 -0.025282884 -0.013556258 -0.03105632 -0.019221429 0.07653134 -0.047058456 0.037615657
0.0038474924 0.011763997 0.020056512 -0.062067408 0.013435022 -0.045163173 -0.044679567 0.05784897
0.029100288 -0.039523475 -0.004419509 0.04160115 -0.03892867 -0.06731175 0.06586275 -0.012712932
0.047484603 -0.03602396 -0.0388986 0.00594858 -0.020842632 0.06331033 0.079185694 0.037974
-0.081417896 -0.057569608 0.03585863 0.077821776 -0.065634735 0.06867265 -0.06352633 0.0342615
0.07468892 -0.08709417 0.037112337 -0.089183 -0.0074542994 -0.06318165 0.0134634245 0.00063598016
-0.056542262 0.07987737 0.058826186 -0.063829325 -0.08426149 -0.052980613 -0.041211255 0.03992738
0.027936157 0.050863087 0.06791122 -0.04085859 -0.01009157 0.05416781 -0.040591232 -0.015093532
0.065031365 0.07810124 0.027743867 0.034008555 -0.05475228 0.052889135 -0.03242674 0.033584874
0.064754434 -0.06944699 -0.016643884 -0.008168825 0.04690195 -0.040889416 -0.018400919 0.020177482
0.0922879 -0.024696484 -0.026189834 -0.028748622 -0.061001692 -0.002193174 -0.007339556 0.016213903
-0.047366664 -0.015142728 -0.05116563 -0.02259976 -0.043575104 0.015527118 -0.00899585 -0.030121712
